continuous_action_space/Models/100_critic.pt (torch, 7815 bytes, 9 tensors)

fcs1.weight f4 [32, 5]
0	0xbf8952c0	-1.0728378
1	0x3e89143f	0.2677326
2	0x3edca70e	0.43096203
3	0x3caa1d63	0.020765966
4	0x3d397b09	0.04528335
5	0x3c8b1011	0.016975434
6	0xbe0612b5	-0.13093074
7	0xbe06c27e	-0.1316013
8	0x3d828c5b	0.06374427
9	0xbc6e2795	-0.014535804
10	0xbf15ce1b	-0.58517617
11	0x3c41e74f	0.011834933
12	0x3e91bf06	0.28466052
13	0x3cc3bff9	0.02389525
14	0x3dda554d	0.10660801
15	0x3daa291c	0.08308622
16	0x3ea969b2	0.33088452
17	0xbf3d66f3	-0.73985213
18	0x3e78d215	0.2429889
19	0xbe40e57f	-0.18837546
20	0xbddc81ea	-0.10766967
21	0xbe259a7a	-0.1617221
22	0x3e234bd8	0.15946901
23	0xbdef39ab	-0.11680921
24	0xbe0da449	-0.13832201
25	0xbe40d5df	-0.18831585
26	0xbdacc8fe	-0.08436774
27	0x3e7b79c8	0.24558175
28	0xbebe2275	-0.37135664
29	0xbe2eefc8	-0.17083657
30	0xbde49655	-0.11161486
31	0xbe812cc9	-0.2522948
32	0x3e5b206c	0.21399087
33	0xbe3934b9	-0.18086518
34	0xbeb9a9e9	-0.36262444
35	0xbedace64	-0.4273559
36	0xbe740b6a	-0.23832479
37	0x3ea4609e	0.32104963
38	0xbe51e51e	-0.20497558
39	0xbcf6c2bd	-0.030122155
40	0xbf38fa21	-0.72256666
41	0x3edff6b9	0.43742922
42	0xbe95e1a3	-0.2927371
43	0x3ed49c70	0.41525602
44	0xbdba6951	-0.09102119
45	0xbea82579	-0.3284109
46	0xbf938428	-1.1524706
47	0xbe58ea03	-0.21183018
48	0xbf821729	-1.0163318
49	0xbd4a7e8f	-0.049437102
50	0x3f10efff	0.56616205
51	0x3f84edbc	1.0385051
52	0xbf792806	-0.97326696
53	0x3f811558	1.0084639
54	0xbcf42aab	-0.029805502
55	0xc0094aef	-2.1451986
56	0x3eb38f64	0.35070336
57	0x3e293ebb	0.16527836
58	0x3e886478	0.26639152
59	0xbc7e67cb	-0.015527676
60	0xbed9b523	-0.4252101
61	0xbe74e243	-0.23914437
62	0x3c899910	0.016796619
63	0xbe1f8283	-0.1557713
64	0xbe6843c0	-0.22682095
65	0x3e200f24	0.15630776
66	0x3f81d8a9	1.0144244
67	0xc0557348	-3.3351612
68	0x3f472ee4	0.77805924
69	0xbcf835d6	-0.030299108
70	0xbea95a13	-0.33076534
71	0x3e810d88	0.25205636
72	0x3c96c433	0.018404102
73	0x3d0e3c94	0.03472574
74	0xbe61370b	-0.21993653
75	0x3e14571a	0.14486352
76	0x3eeac84a	0.45855933
77	0xbffc8369	-1.9727603
78	0x3eb3c22b	0.35109076
79	0xbdb7c588	-0.08973223
80	0x3f09337f	0.535942
81	0xc033be44	-2.808488
82	0xbf06e1bd	-0.526882
83	0xc0360c1e	-2.8444896
84	0xbcfc6429	-0.030809479
85	0x3f6388cc	0.8888061
86	0x3eb94070	0.36181974
87	0xbfbea35c	-1.4893603
88	0x3f29a063	0.66260356
89	0xbd3f2c16	-0.046672903
90	0x3d8468eb	0.06465324
91	0x3e47b3b5	0.19502147
92	0x3e305341	0.17219259
93	0x3eb5298d	0.35383263
94	0xbe645bbc	-0.22300619
95	0x3e49da7e	0.19712254
96	0x3e039dcb	0.12853162
97	0xbf4f9b2c	-0.8109615
98	0xbcfaba60	-0.030606449
99	0xbe7fcf2c	-0.24981374
100	0x3e152a09	0.14566816
101	0xbdab231d	-0.08356307
102	0xbf2a6b84	-0.66570306
103	0x3d842a6b	0.06453403
104	0xbdfb56a1	-0.122723825
105	0xbe05497e	-0.13016316
106	0xbd844a18	-0.06459445
107	0x3c2239d5	0.009901484
108	0xbe01a52f	-0.12660669
109	0xbd895562	-0.067057386
110	0xbe0059d9	-0.12534274
111	0x3e62487b	0.22097962
112	0xbe322803	-0.17398076
113	0x3da3c45f	0.07996439
114	0xbe3c45e3	-0.18386035
115	0x3c571541	0.013127626
116	0xc02045d4	-2.504262
117	0xc05a16cd	-3.4076416
118	0xc0279cc2	-2.6189427
119	0xbd1cdad0	-0.038294613
120	0x3e96cc03	0.29452524
121	0xbeebe18b	-0.46070513
122	0x3f014ff2	0.5051261
123	0xbeb2a11a	-0.34888536
124	0xbec8e07e	-0.39233774
125	0xbe4ea512	-0.20180157
126	0xbf1c8cb0	-0.6115217
127	0x3f1b254f	0.60603803
128	0xbf1cee58	-0.61301184
129	0xbd6899b1	-0.056787197
130	0xbd21de78	-0.039518803
131	0xbe2c606b	-0.16833656
132	0xbe07349e	-0.13203666
133	0x3d13623f	0.035982367
134	0xbb1dc3d1	-0.0024073015
135	0x3c3d4996	0.011553189
136	0xbc60d17a	-0.013721818
137	0xbd06b144	-0.032883897
138	0xbc33c93a	-0.010973269
139	0xba79c4d6	-0.0009527927
140	0xbe8f07b4	-0.27935565
141	0x3e2c9635	0.16854174
142	0xbeaf45b8	-0.3423288
143	0x3e881e26	0.265855
144	0xbdc65424	-0.09684017
145	0xbdbc8464	-0.09204939
146	0x3e698029	0.22802795
147	0x3f9656d2	1.1745245
148	0x3e7e67ca	0.2484428
149	0x3dda8045	0.10668997
150	0xbe8ddaec	-0.27706087
151	0x3e90a1df	0.28248498
152	0x3e99b61d	0.30021754
153	0x3efac618	0.4897926
154	0x3cd84dc3	0.026404267
155	0xbde73a20	-0.11290383
156	0xbd0e7b15	-0.03478535
157	0x3d976843	0.07392933
158	0xbd5c9b57	-0.05385908
159	0xbe0b90fa	-0.13629523

fcs1.bias f4 [32]
0	0x3e13e1e9	0.14441647
1	0xbc67c6c0	-0.014146507
2	0x3dbd8e04	0.09255603
3	0xbf386d80	-0.72042084
4	0xbedf7fa9	-0.43652084
5	0xbe85ef8e	-0.26159328
6	0x3e3a4a11	0.18192317
7	0xbe6eb04e	-0.23309442
8	0x3ee3cf1d	0.44493952
9	0xbdd8f9a4	-0.1059449
10	0x3ea95dfa	0.3307951
11	0x3efd5e29	0.494859
12	0x3ef21b50	0.47286463
13	0xbc1e3e4a	-0.009658406
14	0xbe6b6873	-0.22989063
15	0xbe51316d	-0.2042901
16	0x3e14a539	0.14516152
17	0x3e966672	0.29375035
18	0x3e171254	0.14753085
19	0xbdb7a25f	-0.08966517
20	0xba373117	-0.0006988211
21	0xbc427bc1	-0.011870326
22	0xbec9e636	-0.3943345
23	0xbe872fde	-0.26403707
24	0x3ea93302	0.33046728
25	0xbb8186a1	-0.0039528166
26	0xbebb8114	-0.36621916
27	0xbec36552	-0.3816324
28	0xbe1758a4	-0.14779907
29	0x3ec57963	0.38569173
30	0xbebd0d1b	-0.3692406
31	0xbdda97b5	-0.10673467

fcs2.weight f4 [16, 32]
0	0xbec44c9a	-0.38339692
1	0x3e32b0bb	0.1745023
2	0xbedd5ea6	-0.43236274
3	0x3ea34375	0.31887403
4	0xbe2da5ec	-0.16957825
5	0xbe246c57	-0.16056953
6	0xbdbb114a	-0.09134157
7	0xbe27fe6a	-0.16405645
8	0x3e5de75f	0.21670292
9	0xbe936101	-0.28784946
10	0xbe0f51ed	-0.13996096
11	0xbe438561	-0.19093849
12	0xbf12e400	-0.5737915
13	0x3d6bd1ea	0.057573237
14	0xbe5f0489	-0.21779074
15	0x3e3af5f1	0.18257882
16	0xbd132669	-0.035925303
17	0xbd4a0d47	-0.04932907
18	0xbd3665f6	-0.04453083
19	0x3d847c73	0.06469049
20	0xbe928640	-0.2861805
21	0x3e32fa0c	0.17478198
22	0xbe2fa761	-0.17153694
23	0xbe0a9311	-0.13532664
24	0xbed246c5	-0.41069618
25	0xbe273b1a	-0.16331139
26	0x3dbc02cc	0.09180221
27	0x3dda8c38	0.10671276
28	0x3e2a6f6b	0.16644065
29	0xbee31784	-0.44353878
30	0xbe83112b	-0.25599036
31	0xbc983e90	-0.01858452
32	0x3e10b94e	0.14133188
33	0x3e7be61c	0.24599499
34	0xbe3c9fbc	-0.18420309
35	0xbce27580	-0.027643919
36	0x3e61540e	0.2200472
37	0xbdc087bf	-0.094008915
38	0xbe4d9262	-0.20075372
39	0x3c84f1a4	0.016228504
40	0xbe036dc4	-0.12834841
41	0x3d7263c0	0.05917716
42	0xbe0fe275	-0.1405123
43	0xbd15129a	-0.036394693
44	0xbe0f8f4c	-0.14019507
45	0xbe0bd362	-0.13654855
46	0x3e3917a2	0.18075421
47	0xbe2839fa	-0.16428366
48	0xbe12016f	-0.1425836
49	0x3e5269ee	0.20548221
50	0xbd094707	-0.033515003
51	0xbe6df656	-0.23238501
52	0xbdd144f5	-0.10218231
53	0xbdaa3310	-0.08310521
54	0xbcabf070	-0.020988673
55	0x3e0061a8	0.12537253
56	0x3d5ff2d1	0.054674927
57	0xbe7a49f0	-0.24442267
58	0x3e577366	0.21040115
59	0xbc254a60	-0.010088533
60	0x3daebd00	0.08532143
61	0xbd99873d	-0.07496498
62	0x3e2ab426	0.16670284
63	0xbe15dcf4	-0.14635068
64	0x3e10e447	0.14149581
65	0xbe20ce8c	-0.15703791
66	0x3e872fdf	0.2640371
67	0x3f61564b	0.880223
68	0xbca6ff10	-0.020385295
69	0x3f11fd88	0.57027483
70	0xbce5f5e6	-0.028071355
71	0x3e7ef854	0.24899417
72	0xbe688df9	-0.22710408
73	0xbdd2ac56	-0.10286777
74	0xbe130b10	-0.14359689
75	0xbe8d2b23	-0.27571973
76	0xbf3f9d5e	-0.748495
77	0xbeb31264	-0.34974968
78	0x3f65c31d	0.89750844
79	0x3eab696c	0.33478868
80	0xbe2d74de	-0.16939113
81	0xbe66ad7f	-0.22527121
82	0xbec67b33	-0.3876587
83	0xbdf0fe27	-0.11767226
84	0x3e562ae0	0.20914793
85	0xbe259d08	-0.16173184
86	0xbd8ba099	-0.06817741
87	0x3e892f97	0.2679412
88	0x3df26d59	0.11837263
89	0x3f0e7b15	0.5565656
90	0xbe26d452	-0.16291931
91	0xbdf7b568	-0.12095147
92	0x3f7f5613	0.99740714
93	0x3e5757aa	0.21029535
94	0xbed5c550	-0.417521
95	0xbd83c0f4	-0.06433287
96	0x3eb6d73f	0.35711095
97	0xbd603d0a	-0.05474571
98	0x3f0664be	0.5249747
99	0xbeea33d9	-0.45742682
100	0x3de888d8	0.11354226
101	0x3efc9ec2	0.49339873
102	0x3eb41c04	0.35177624
103	0xbe2965ca	-0.16542736
104	0x3ea2dde6	0.3180992
105	0xbea2458c	-0.31693685
106	0x3c755b5c	0.014975395
107	0x3e099529	0.13435806
108	0x3cd0df65	0.025497148
109	0x3e815baa	0.25265247
110	0x3e5b5336	0.21418461
111	0xbe4379a8	-0.19089377
112	0xbfc5b7e3	-1.5446743
113	0xbef04a76	-0.4693181
114	0x3856a012	5.1170653e-05
115	0xbf366dc5	-0.71261245
116	0xbe3a1361	-0.18171455
117	0x3bd73240	0.0065672696
118	0x3e0e7345	0.1391116
119	0xbd0e86cd	-0.034796525
120	0x3ecb7c77	0.39743397
121	0xbde03152	-0.10946907
122	0xbdbca518	-0.09211177
123	0x3c3a81a0	0.011383444
124	0x3e370def	0.17876409
125	0xbe132a50	-0.1437161
126	0x3e4dc66a	0.2009522
127	0x3d1535c2	0.03642822
128	0x3bfbfe99	0.0076902625
129	0x3e12b908	0.14328396
130	0xbe03383a	-0.12814417
131	0xbe95f913	-0.2929159
132	0x3e1f41c2	0.15552428
133	0xbe68f388	-0.2274915
134	0xbf290bf3	-0.6603386
135	0xbd4f25fb	-0.05057333
136	0xbe788fad	-0.24273558
137	0xbd05bcc5	-0.032650728
138	0xbde86ad1	-0.113484986
139	0xbf1dc91a	-0.6163498
140	0x3dfe0a0a	0.124042585
141	0xbdd8da63	-0.10588529
142	0x3a0278d3	0.00049771107
143	0xbd1312e0	-0.035906672
144	0x3e84517b	0.25843415
145	0xbddc06e6	-0.10743503
146	0x3e7167a0	0.23574686
147	0xbd8562ed	-0.06513009
148	0x3e712538	0.23549354
149	0xbdfe5c54	-0.12419954
150	0x3cd93ff3	0.026519751
151	0x3f266c10	0.6500864
152	0xc000d6d9	-2.0131133
153	0x3d835f4a	0.06414659
154	0x3dd3977c	0.10331628
155	0x3e22eca2	0.15910581
156	0xbf239967	-0.6390595
157	0x3e0b4e92	0.13604191
158	0x3eb80fc0	0.35949516
159	0xbe680927	-0.22659741
160	0x3db7449f	0.08948635
161	0xbe1c6987	-0.1527463
162	0xbe01d0d9	-0.12677325
163	0xbecd7461	-0.40127853
164	0xbdf61400	-0.120155334
165	0xbe687a71	-0.22702958
166	0x3ea0900c	0.313599
167	0x3ea56658	0.32304645
168	0xbe151682	-0.14559367
169	0x3e8280a2	0.25488764
170	0xbecae808	-0.3963015
171	0xbefdfa6a	-0.49605113
172	0xbf31a332	-0.6938964
173	0xbf3be823	-0.7340109
174	0xbeb40c64	-0.35165703
175	0x3e365a3d	0.1780786
176	0x3ede54bf	0.4342403
177	0x3e2e5f3f	0.17028521
178	0xbdbca3a4	-0.092108995
179	0x3e389c5f	0.18028401
180	0x3d8449ab	0.064593635
181	0x3e816f32	0.25280148
182	0xbe922880	-0.28546524
183	0x3fa1e3e4	1.2647672
184	0xbd3c9bd4	-0.046047047
185	0x3e5c83e6	0.2153469
186	0xbda6c404	-0.08142856
187	0xbe5f5308	-0.21809018
188	0xbe27cf89	-0.16387762
189	0xbf03577b	-0.5130536
190	0xbf118087	-0.5683674
191	0xbe804e21	-0.25059608
192	0x3e3865b0	0.1800754
193	0xbda80639	-0.08204312
194	0xbdc91b15	-0.098196186
195	0xbe8fb77d	-0.28069678
196	0x3e0e96be	0.13924691
197	0xbf66bd1f	-0.90132326
198	0x3d84f1a4	0.06491402
199	0x3df426c3	0.11921456
200	0xbf09c020	-0.53808784
201	0x3e14d032	0.14532545
202	0x3da8f86b	0.08250507
203	0x3eb383ac	0.35061395
204	0x3ea9a44c	0.3313316
205	0x3e11f5b8	0.1425389
206	0xbeea08e1	-0.457099
207	0xbdc1fad7	-0.09471672
208	0x3ec3bffa	0.38232404
209	0x3e8b6602	0.27226263
210	0xbe3b47fb	-0.18289177
211	0xbc35586e	-0.011068447
212	0x3e0883b7	0.13331495
213	0xbdcf9f13	-0.10137763
214	0xbdfa02c6	-0.1220756
215	0x3f8318fb	1.0241998
216	0x3ed5d108	0.4176104
217	0xbc0abe09	-0.0084681595
218	0xbdbe294c	-0.092852205
219	0x3e7e8af3	0.24857692
220	0x3e233ba6	0.15940723
221	0xbde9b6d9	-0.114118285
222	0xbeb39f03	-0.35082254
223	0x3e40128e	0.18757078
224	0x3e8c44ab	0.2739614
225	0xbe0caa3b	-0.13736813
226	0x3e66efe7	0.22552453
227	0x3e865135	0.2623383
228	0x3e5ed37a	0.2176036
229	0x3e8bdf1a	0.2731865
230	0xbd96bc64	-0.073601514
231	0x3e45cf52	0.19317368
232	0xbf2b36a5	-0.66880256
233	0x3eb91960	0.36152172
234	0xbf55407f	-0.8330154
235	0x3e344ae5	0.17606695
236	0x3f81e849	1.0149013
237	0xbf370a07	-0.71499676
238	0x3ea94e5a	0.3306759
239	0xbeae6ee0	-0.34068966
240	0xbe762e4c	-0.24041098
241	0xbfb3f8dc	-1.4060321
242	0xbf579242	-0.84207547
243	0xbe91a796	-0.2844817
244	0xbd58cac3	-0.052927744
245	0x3dc25c7f	0.094902985
246	0x3d9c84e0	0.076425314
247	0xbf52df1e	-0.823717
248	0xbd2fbed1	-0.042906586
249	0x3df612f3	0.12015333
250	0x3dc2a968	0.09504968
251	0xbd64b97d	-0.055840958
252	0xbe806979	-0.2508047
253	0x3e63e68d	0.22255917
254	0xbe0d1f6c	-0.13781518
255	0xbda82054	-0.08209291

fcs2.bias f4 [16]
0	0xbe87c44f	-0.2651696
1	0xbe1681ca	-0.14697948
2	0xbd2cfbc5	-0.042232294
3	0xbeac636d	-0.33669606
4	0xbe833452	-0.25625855
5	0xbf030d43	-0.5119211
6	0x3e1b38d7	0.15158401
7	0x3e83ad6c	0.25718248
8	0x3ee05c4a	0.4382041
9	0xbf115d5f	-0.567831
10	0x3df26970	0.11836517
11	0x3edfc009	0.437012
12	0x3e703ebf	0.23461436
13	0x3d935d18	0.071954906
14	0xbe1c5218	-0.15265691
15	0xbcddc050	-0.02706924

fca1.weight f4 [16, 1]
0	0x4018950c	2.384097
1	0x3d67a397	0.056552496
2	0xc10981a1	-8.594148
3	0x3f83a1b3	1.0283722
4	0xc0b78aef	-5.7357097
5	0x40730d81	3.7976992
6	0xc0bb7eab	-5.8592124
7	0x3ebe8bec	0.37216127
8	0x403c690b	2.9439113
9	0x3ebc2e72	0.36754185
10	0x40452f2b	3.081004
11	0xbb6b166b	-0.0035871516
12	0xc1162bdb	-9.385707
13	0xc09ad72f	-4.8387675
14	0xbc9312e0	-0.017953336
15	0xc0bb3c42	-5.8511057

fca1.bias f4 [16]
0	0xbd180c55	-0.037121136
1	0xbf24492f	-0.6417417
2	0x3f326682	0.69687665
3	0x3d1b9697	0.03798541
4	0xbcec1454	-0.028818287
5	0x3d59ff5b	0.05322204
6	0xbb9c000f	-0.004760749
7	0xbfa20325	-1.265721
8	0x3f0668a6	0.5250343
9	0xbf99d946	-1.2019432
10	0x3f52892e	0.8224057
11	0xbdb10ada	-0.08644648
12	0x3ecd2a29	0.40071228
13	0x3ec3cbb1	0.38241342
14	0xbe9f578b	-0.31121477
15	0xbccccc68	-0.024999812

fc2.weight f4 [16, 32]
0	0x3e4006d6	0.18752608
1	0xbd2e6af7	-0.04258248
2	0x3c88d5c0	0.016703486
3	0x3c4b97cf	0.012426331
4	0x3de9d61a	0.1141779
5	0xbe168d84	-0.14702421
6	0x3ece4b3b	0.4029177
7	0xbee08741	-0.4385319
8	0xbfba4242	-1.455147
9	0xbe29e6b3	-0.16591911
10	0xbd3d95d3	-0.04628546
11	0x3e4d225a	0.20032635
12	0x3d0ce8ba	0.034401633
13	0x3e3bb172	0.18329409
14	0xbf0f9456	-0.5608572
15	0x3ea66c10	0.3250432
16	0xc0a66828	-5.2002144
17	0xbde3dad5	-0.11125723
18	0x3f3204db	0.6953866
19	0xc00f80cd	-2.2422364
20	0xc0a97d3b	-5.296537
21	0xc0369ca6	-2.853311
22	0xc0a25cfc	-5.0738506
23	0x3e523726	0.2052885
24	0xbf0f78fd	-0.5604399
25	0x3f188185	0.5957263
26	0xbe8aece9	-0.27133873
27	0x3c94d41a	0.018167544
28	0x3f6f6016	0.9350599
29	0x3f0eb1c5	0.55740005
30	0xbe0854d8	-0.13313615
31	0xc0981bf4	-4.7534122
32	0x3e70a068	0.2349869
33	0x3cca6bf0	0.024709672
34	0xbed1e136	-0.40992135
35	0x3ba06ce3	0.004895793
36	0xbdcdf162	-0.10055806
37	0xbbea6e72	-0.0071542794
38	0xbcf766cd	-0.030200386
39	0xbc807149	-0.015679019
40	0xbdb32204	-0.08746722
41	0xbf07dbbe	-0.53069675
42	0xbd249367	-0.040179636
43	0xbdad78c7	-0.08470302
44	0x3d346254	0.044039086
45	0xbd45eaaa	-0.048319496
46	0xbdae2c77	-0.08504575
47	0xbdf2cb19	-0.11855144
48	0x3e5dc437	0.21656881
49	0x3e28d15b	0.16486113
50	0x3db208c2	0.08693077
51	0x3f22e99d	0.63637716
52	0xc01ef5e2	-2.4837575
53	0xbed3ae27	-0.41343805
54	0xc018856c	-2.3831434
55	0x3eca72d6	0.39540738
56	0xbdb69ca7	-0.08916598
57	0x3ea84c8a	0.32870895
58	0xbdcc66d9	-0.09980554
59	0xbdd275a5	-0.10276345
60	0x3db92518	0.09040278
61	0xbe7cece2	-0.24699739
62	0xbd92ad50	-0.07161963
63	0xc004af3b	-2.0731952
64	0xbf52798d	-0.8221672
65	0xbe1992f5	-0.14997466
66	0x3e80e291	0.25172856
67	0xbf38c370	-0.72173214
68	0xbca7db41	-0.02049029
69	0x3e3f89d5	0.18704922
70	0xbcefb9ee	-0.029263463
71	0xbf00186a	-0.5003725
72	0xbf47b3b4	-0.7800858
73	0xbe2e3446	-0.17012128
74	0x3e0ea225	0.1392904
75	0xbea4e958	-0.32209277
76	0xbda8aa4b	-0.08235606
77	0x3d306e98	0.04307422
78	0x3e3ce9f3	0.1844862
79	0xbe27cf8a	-0.16387764
80	0xc0829042	-4.0801096
81	0xbe2e2c76	-0.17009148
82	0x3ef9147f	0.4864845
83	0xbf923fef	-1.1425761
84	0xc03d6ec4	-2.9598856
85	0xbfc41201	-1.5317994
86	0xc012e7e8	-2.2954044
87	0x3f1f72e3	0.6228468
88	0xbeb5d185	-0.35511413
89	0x3ec346e1	0.38140014
90	0xbe1f8a52	-0.15580109
91	0x3cd0b855	0.025478521
92	0x3f2b7cf5	0.66987544
93	0x3eda266d	0.42607442
94	0x3bb04f58	0.0053805523
95	0xc0125760	-2.286583
96	0xbecff8eb	-0.40619597
97	0xbe5c83e6	-0.2153469
98	0xbb409b46	-0.0029389425
99	0x3e186244	0.14881235
100	0x3c6e2f65	0.014537667
101	0xbdd23ef5	-0.10265914
102	0x3e3c8464	0.18409878
103	0xbf0cb20a	-0.54959166
104	0xbfd01c13	-1.6258568
105	0xbea08c23	-0.31356916
106	0xbde5d6a5	-0.11222581
107	0x3d8f983e	0.0701146
108	0xbe693dc1	-0.22777463
109	0x3db3934b	0.08768328
110	0x3e89ef00	0.26940155
111	0x3d92a57f	0.07160472
112	0x3e576362	0.21034005
113	0xbdaf1ea7	-0.08550768
114	0x3e8704e6	0.26370925
115	0x401acb77	2.4186685
116	0xc00e678c	-2.22507
117	0xbf980484	-1.1876378
118	0xbff27cf9	-1.8944389
119	0x3ea1b505	0.3158342
120	0xbe88414e	-0.26612324
121	0x3f2ce456	0.67535913
122	0xbe542b27	-0.20719586
123	0x3dcf453b	0.101206265
124	0x3f9afe3f	1.210884
125	0xbe1baa1f	-0.15201615
126	0xbe4ac4e0	-0.19801664
127	0xbfd81ee3	-1.6884426
128	0x3ec7a414	0.3899237
129	0x3d684998	0.05671081
130	0x3cf34fea	0.029701192
131	0xbf734c02	-0.95037854
132	0xbe254ee8	-0.16143382
133	0xbf6428f4	-0.8912499
134	0xbebce60b	-0.3689426
135	0x3ee073ba	0.43838292
136	0xbe39add0	-0.1813271
137	0xbeefbdd7	-0.46824524
138	0xc0432f70	-3.0497704
139	0x3e95705a	0.2918728
140	0x3cd9631b	0.026536515
141	0x3e3f85ed	0.18703432
142	0xbe51d966	-0.20493087
143	0xbee3bf7d	-0.4448203
144	0xbf9bf840	-1.2185135
145	0x3d94704c	0.072479814
146	0xbd975c8c	-0.07390699
147	0xbf4d225a	-0.8013054
148	0xbf5f6248	-0.8725934
149	0xbf609eb2	-0.8774215
150	0xbf2ff580	-0.6873398
151	0xbdd98643	-0.106213115
152	0x3d9cf240	0.07663393
153	0xbec29b01	-0.38008884
154	0xbb87fee7	-0.00415026
155	0xbde94fc8	-0.1139217
156	0xbdf99d37	-0.121881895
157	0xbdfb3b48	-0.122671664
158	0xbc50eb1c	-0.012751367
159	0xbf57c8f3	-0.84291
160	0x3e23bc8f	0.15989898
161	0x3df2d6d1	0.11857379
162	0xbedc39ae	-0.43012756
163	0xbcd9b90c	-0.026577495
164	0xbd2e5f40	-0.042571306
165	0x3e697c42	0.22801307
166	0x3e0cc97b	0.13748734
167	0x3e4419d1	0.19150473
168	0x3c89a0e0	0.016800344
169	0xbedb4396	-0.42825
170	0xbde7b337	-0.113134794
171	0x3d6361bb	0.055513125
172	0xbe9f0d53	-0.31064853
173	0x3e09625f	0.13416432
174	0x3f1b4490	0.60651493
175	0xbf6f5846	-0.9349407
176	0xbf9bdce7	-1.2176789
177	0x3d7e1d93	0.062039923
178	0x3e82b752	0.25530487
179	0x3de66efe	0.11251639
180	0xbfea3f91	-1.8300649
181	0xbf44f0ab	-0.7692973
182	0xc001a1fa	-2.0255113
183	0x3eca72d7	0.3954074
184	0xbe1f4fbb	-0.15557759
185	0x3f02bf23	0.510729
186	0xbebd95d4	-0.37028372
187	0x3dd67901	0.104722984
188	0x3ed2cf7d	0.41173926
189	0xbe82078a	-0.25396377
190	0xbe690ee1	-0.22759582
191	0xbfce85d2	-1.6134589
192	0xbf589413	-0.84600943
193	0xbda39197	-0.079867534
194	0xbefa25ef	-0.48857066
195	0xbfd3350f	-1.6500567
196	0xbedea6c8	-0.4348662
197	0xbf5ed1c0	-0.87038803
198	0xbe7a5c9f	-0.24449395
199	0xbebff34e	-0.37490314
200	0xbf882dc6	-1.0638969
201	0x3da195c5	0.078898944
202	0x3e449ea2	0.19201139
203	0xbef15418	-0.4713447
204	0xbdb7543f	-0.089516155
205	0x3cdb300c	0.026756309
206	0x3e831512	0.25602013
207	0x3ebee5c5	0.37284675
208	0xc04cfb48	-3.202837
209	0xbe582a9a	-0.21110001
210	0x3ebe35fc	0.37150562
211	0xbfa92363	-1.3213924
212	0xc04bce7f	-3.1844785
213	0xbfd8f5bc	-1.6949992
214	0xc0333d5b	-2.8006198
215	0x3f30dbfa	0.6908566
216	0xbee0065a	-0.43754846
217	0x3f05e3d5	0.5230077
218	0xbec42d5a	-0.3831585
219	0xbe2d2aa6	-0.169108
220	0x3f13e9b8	0.577785
221	0x3e4ee392	0.20203999
222	0x3d93eda0	0.07223058
223	0xc01fdc5a	-2.4978242
224	0xbec4bde3	-0.38426122
225	0xbd4aa7a8	-0.049476296
226	0xbd074f1e	-0.033034436
227	0x3ecb2687	0.39677832
228	0x3e6a4b49	0.22880282
229	0xbe7bc7e9	-0.24587978
230	0x3e6cef13	0.23138075
231	0x3ede4137	0.4340913
232	0xc00612b6	-2.094892
233	0xbd4254af	-0.04744404
234	0xbebcde3c	-0.368883
235	0xbe78ed6e	-0.24309322
236	0xbd9ca038	-0.07647747
237	0x3ed1b254	0.40956366
238	0x3ee9a739	0.45635393
239	0x3db813a8	0.08988124
240	0x3e1f1523	0.15535407
241	0x3c44258a	0.011971841
242	0xbe20f1b3	-0.15717201
243	0x3e82b36b	0.2552751
244	0xbfd30dfe	-1.6488645
245	0xbe458cea	-0.19292036
246	0xbfbf89d5	-1.4963938
247	0x3e2e288e	0.17007658
248	0xbe01e461	-0.12684776
249	0x3f012110	0.50441074
250	0x3d87dbbf	0.0663371
251	0xbd6ba30a	-0.057528533
252	0x3ea3dbcf	0.32003638
253	0xbe7d5a41	-0.2474146
254	0xbe2e76b0	-0.17037463
255	0xbfb77b4e	-1.4334505

fc2.bias f4 [16]
0	0x3e2b7cf5	0.16746886
1	0xbdb8ac00	-0.090171814
2	0x3eb7e0e0	0.35913754
3	0x3e12efb8	0.14349258
4	0xbd8b815a	-0.06811781
5	0xbe4efeeb	-0.20214431
6	0x3da16acc	0.07881698
7	0x3cf8d216	0.030373614
8	0xbe2896c3	-0.16463761
9	0xbe32b0bb	-0.1745023
10	0xbe585d63	-0.21129374
11	0x3e0ef42c	0.13960332
12	0x3dfb8198	0.122805774
13	0xbf178f54	-0.59203076
14	0xbdbc5583	-0.091959976
15	0xbd49366e	-0.049124174

fc3.weight f4 [1, 16]
0	0xbf3479c5	-0.70498306
1	0xbc20a394	-0.009804625
2	0xbf1c7928	-0.6112237
3	0xbe13fd40	-0.14452076
4	0x3e3f5af6	0.18687043
5	0xbe72a020	-0.23693895
6	0xbf6ea0ad	-0.9321392
7	0xbe141c80	-0.14463997
8	0x3bd06e1b	0.006360782
9	0xbea93302	-0.33046728
10	0x3b51681c	0.0031952923
11	0xbfcfe563	-1.6241878
12	0xbf19297d	-0.5982893
13	0xbf2e3fff	-0.680664
14	0xbd86457d	-0.065562226
15	0xbb875307	-0.0041297707
