continuous_action_space/Models/100_critic.pt (torch, 7815 bytes, 9 tensors)

fcs1.weight f4 [32, 5]
00000000: b7cc 2f3e 5455 1a3e af7d 993e 7f97 493d
00000010: b05c 553b 746d 913e df33 1abc e07f 103d
00000020: 2267 55be 4bb7 a23a 1abd 16be 5075 cabd
00000030: 0368 1a3e 88fd 07bd af9c 393d 25e5 563e
00000040: 8470 3cbe b522 b0be 1d75 22bc 7ee6 8d3b
00000050: 2ce8 f2bd 1f6b b0bd 4dc6 28be 5a21 b63d
00000060: 7370 15be 0cd3 7b3e 5996 81bd 2605 4d3e
00000070: 9fc3 db3c 7228 9a3c b786 c83d c42e 243e
00000080: 3b00 bd3d 59f8 423e c8b1 943d 2569 223e
00000090: af11 0fbe e7d7 87be 33fa 223d 4215 e63d
000000a0: 0f6e 8c3e 440c ffbc 3582 8cbe ad05 c53d
000000b0: 720d 81bc f94c 8f3d 78fc 173e 6025 9cbe
000000c0: 5063 dfbd 507e f13d 4ec9 2ebd 79a0 dcbd
000000d0: 86ff 0bbe 0561 9dbe 2d22 ddbb e257 433e
000000e0: 6916 abbb 55ed d53e 93f1 503d fecb 3d3b
000000f0: db86 843e b0ba a23c f09e be3c ab43 e3bd
00000100: 7ddd e23d 3ab6 edbd 3525 acbd e5d8 c8bd
00000110: 7051 8abd f365 b5bc a95d cbbc 16c9 563e
00000120: 589d 43bf c1f3 f03c 5e4d 683c 3f36 063d
00000130: 9edd 923e 143d 6abe 2887 8f3e 8ef4 bbbd
00000140: 6ec2 48be 161b 5b3e e0f1 a8be dc17 de3d
00000150: a9d8 153e a9f2 39be a1de 9e3d 8900 463e
00000160: 56b6 73be 50b6 9a3d 0842 12be bea4 8c3e
00000170: 64d7 9abe 9920 a33e 07c9 183e 5c88 8d3e
00000180: e3ed 83bc d780 093e 1bc4 f33b 28c0 4ebc
00000190: 792b 9cbe d9a0 063e 144d 15bf 19dc 223e
000001a0: 83c2 3a3e 516b e33a 7cd4 2f3c ab5e 0abf
000001b0: 8440 7e3c e6fc 3f3e fd91 d43d 1a86 bfbe
000001c0: 2505 4e3e 520d 48be 9dc1 b83d c666 a43e
000001d0: 037e f3bd a49d d0bd c578 35be 6b7f 78b9
000001e0: 3713 59be 52ba 073e ff5c 2b3d c8b8 333e
000001f0: a214 8c3d df8a 1c3e 8c6d be3e d6e3 1a3f
00000200: 6490 b93d a6a5 c93d 0560 19bf d298 b2be
00000210: 88bc 10bf 23c2 a8be af5f 6fbd b3fd 0d3e
00000220: a4a1 383e 00b8 0d3e a4a5 443e 82b1 8b3b
00000230: 6c27 a63c 87fa 243e 6d50 e23e f629 4c3e
00000240: a91c 53bd dee3 e63a 69b5 d3bc 41f5 02bd
00000250: 0ffd 163e ae57 d83d 5bd1 9b3d 215b 9fbd
00000260: 0e7c cbbd 7909 1abd 261d 47be 5d44 fd3d
00000270: 08b5 d83d d37b 07be 2f3d 45bd 79d3 603d
0.17167936 0.15071613 0.299787 0.049216744 0.0032556467 0.2840382 -0.009411781 0.0352782
-0.20840123 0.0012414245 -0.14720574 -0.09885657 0.1507874 -0.03320077 0.04531544 0.20985849
-0.18402296 -0.3440148 -0.009915617 0.0043304553 -0.118606895 -0.08614182 -0.16481896 0.0889308
-0.14593677 0.24592227 -0.06327505 0.20021495 0.026826678 0.018818114 0.0979132 0.16033465
0.092285596 0.1904005 0.072604716 0.15860422 -0.1397159 -0.26531908 0.03978939 0.11234523
0.27427718 -0.031133778 -0.2744309 0.09620223 -0.015753482 0.06997103 0.14842403 -0.30497265
-0.10907614 0.1179167 -0.042672448 -0.10772795 -0.13671693 -0.30738083 -0.006748459 0.19076493
-0.0052211774 0.41782632 0.051011633 0.00289607 0.25884137 0.01986441 0.023269147 -0.11096891
0.11077402 -0.116070226 -0.08405534 -0.09806994 -0.06753814 -0.02214334 -0.024824934 0.20975146
-0.7641196 0.029413106 0.014178602 0.032766577 0.28684705 -0.22874862 0.28032804 -0.091775045
-0.19605419 0.21397051 -0.32997036 0.108443946 0.1463343 -0.18158974 0.07757307 0.19336142
-0.23800024 0.075543046 -0.14283001 0.27469438 -0.30242455 0.31860808 0.14920436 0.27643096
-0.016104644 0.13428055 0.007439149 -0.012619056 -0.30501917 0.13147296 -0.58320737 0.15904273
0.18238263 0.0017350708 0.010731813 -0.540507 0.015518311 0.18748817 0.103794076 -0.37407
0.2011915 -0.19536331 0.09021304 0.3210966 -0.11889269 -0.101863176 -0.17721851 -0.0002369859
-0.21198736 0.1325467 0.041836735 0.17550957 0.06839873 0.1528735 0.37192953 0.605039
0.090607435 0.09846048 -0.5991214 -0.34882218 -0.56537676 -0.32960615 -0.05844086 0.1386631
0.18030411 0.13839722 0.19203812 0.004263104 0.02028247 0.16111194 0.44201985 0.19937882
-0.051541004 0.0017615517 -0.025843339 -0.031972174 0.14744972 0.105635986 0.07608291 -0.07781053
-0.09935771 -0.03760669 -0.19444713 0.12366555 0.10581404 -0.13230829 -0.048154052 0.054889176

fcs1.bias f4 [32]
00000000: 3464 2b3e 7a81 af3e c834 7dbc 08b7 3a3e
00000010: 4ba3 e8bd e470 433e 95c1 b6bd 29a4 0bbe
00000020: 90f6 b03e 8ef2 5cbe 0057 973e 3771 d63e
00000030: bc75 983e fc8a 20be 79e7 f43e c116 633e
00000040: 9866 173e 2245 e33e dd75 97be 6ecc a43e
00000050: c92c e6bd 4841 e73e ed75 3c3e a610 8abe
00000060: bc54 7ebe ec48 e13e 044f b43d 9a51 a13e
00000070: 2aae 81bd 95b4 78be fa1b 0a3e bbbe 2abe
0.16737443 0.3427847 -0.015454479 0.18233883 -0.11359271 0.19086033 -0.089236416 -0.13636841
0.34563112 -0.21576902 0.29558563 0.4188325 0.29777324 -0.15678018 0.4783285 0.22176649
0.1478523 0.44388682 -0.2958211 0.32187217 -0.11239011 0.45166993 0.1840436 -0.26965827
-0.24837011 0.44000947 0.088041335 0.3150757 -0.06332047 -0.24287637 0.13487235 -0.1667432

fcs2.weight f4 [16, 32]
00000000: 18ff 08bd 12f5 afbd a465 cebd 248d 833e
00000010: c4b7 ea3d 3750 33bd e3f1 3cbe e885 f53d
00000020: b2ed 4d3e 3ec0 113e 790b 52bc 64cc 1ebc
00000030: 9299 d73c f44f dfbd 05ad 3fbe 71ee 81bc
00000040: f620 213e a6d9 f7bd 5677 adbc 87ed ad3d
00000050: 259b 25be 3310 4f3e c334 0abe 7fee 9bbe
00000060: e709 5cbe 61eb 75be eec7 ce3d 084d 20be
00000070: 04d5 dd3d e1fd 9b3b a7df 3bbe 508c 3e3e
00000080: 6844 e33e a8fd 5f3d 024b b43d fbae 88be
00000090: c654 77be 13c4 5c3e b773 3a3e 58a0 f9bd
000000a0: 0008 e73a 6799 0ebe 65e0 1ebe 98f9 b73b
000000b0: cedf 5d3c 6975 00be cfb9 253c c9a4 b83e
000000c0: f716 e03c 97dd 2f3d 7e69 5e3e 9701 8bbd
000000d0: a9cf 1e3c 3080 b5bc 0050 3b3e 2d62 f8bd
000000e0: 2e2b 9c3e c573 673e 8c1f 60bf 2ca8 de3e
000000f0: e317 f33e 0ac0 2cbc 17be 10be 8a74 1c3e
00000100: 47ab 67bb fc67 813e fc08 c0bd 9f38 c43e
00000110: 3e85 7fbe 00f3 4d3e b437 8f3d 88c0 663e
00000120: 9d0a 403d ca56 2cbd 42ec dd3d 3fb7 203e
00000130: 4049 093e 1ea9 083d 8876 01be 362a 8bbd
00000140: 5892 92b8 6199 77be 7b9f 75be eb9e 9b3e
00000150: 4355 4fbe d903 303e aa3d ac3c 9f4d 243e
00000160: 371a 04bd 6345 5e3e e3ea cc3e 93f3 413e
00000170: 4c4d 963e 1e42 a13d a071 84bc 7cd6 52be
00000180: f86f 413e e364 84be 082a 453d 3add d6bc
00000190: 4044 dcbb 9612 0bbe 5836 233e 4747 99bd
000001a0: 038c bdbe 5b92 46bd beb8 a9bc c3f6 9f3e
000001b0: 668d 3cbe 370c 37be d88a 89be e458 e3bc
000001c0: c763 4abe 60db 30bd 0f04 863d 4603 543e
000001d0: 9b31 9e3d 7ab6 6d3e 6afd b53c af67 1cbe
000001e0: 3019 343c 59fa 6a3e cf3d 0c3c cdf7 11bd
000001f0: 0ed4 d43e f1ee f0bd fef4 1dbe 3de4 4d3e
00000200: a8e9 ae3d a11a 12be 3622 e43e 9cc7 453e
00000210: c4a7 783e ffa0 84bc 5f44 3cbe 7198 90be
00000220: 36f4 143f 34fa ebbd 6404 c9bd 423d b43d
00000230: 0051 8d3e d61f 29be 7011 0bbf 5e36 2abd
00000240: a9e4 c5be 889f a93e 3d43 1ebf 1cd0 c73e
00000250: 66b3 efbe 6091 31be 4b63 59bf a641 0f3e
00000260: 1230 7d3c a71e 773e bdc7 ce3d 8fcc d63d
00000270: 505a 9a3e ff50 a6be 574e 9d3d e9b2 ce3e
00000280: bf00 aeb9 ddc5 bbbb 4d45 12be 9858 553e
00000290: e0d9 53bc d8fb 0f3e 2a12 73bd dbda 853e
000002a0: f5e1 aa3e 8563 923d 3298 9b3d 43ba 0fbe
000002b0: c4fd 8a3e ce1e 913e 5d18 39be f071 58be
000002c0: 4655 373e 6e42 f03c 1485 1c3d 943e 143e
000002d0: e0ff 15be 70cf 353e 804b d1bc 56f9 273d
000002e0: 8670 babe e29f 85be 4318 3c3e 8015 7bbd
000002f0: fe2d e83d baec 843d 93d1 ef3d 0942 2bbe
00000300: aa00 2e3e 252f 2d3e f709 24be 92fc f43c
00000310: e4ad 5a3e aa97 733e 46a4 5fbd d581 12bc
00000320: 0263 2bbe fcd9 183e f85b a1bd 02e0 57be
00000330: 9991 353e 96d4 2bbe 04e7 d23d 808c 2dbd
00000340: 52a0 76bd a218 493c a550 463e 9fc9 883d
00000350: a12f 8abe f314 1e3e 1602 1cbe ac26 693e
00000360: 222c babe 34bd 9f3d 215a 8a3e b48a c2bd
00000370: 189a 093d 5a6e 1e3d beae 343e 849b 093e
00000380: d247 d33e 9460 673e a3ee a7bd cba1 dd3e
00000390: b043 23be 75f1 f03d abee 3c3e 83e7 87bd
000003a0: 8d9f 90bd f2b4 47bd d8cb 8d3e 31a7 e83d
000003b0: 076f abbc 3d9c 29be c6c7 23be 2647 91be
000003c0: 887d de3d c3a6 5c3e bde0 0abe 6ab8 1b3e
000003d0: f35e 36be 43f2 6abd 65fe bc3d e999 0cbd
000003e0: 74db 2dbd 64d7 11bd da4f 4e3e a87b b13e
000003f0: 82ed 31bc 3740 d7bd dd17 a4bd a2e6 973e
-0.0334464 -0.08591665 -0.1007798 0.2569362 0.11460832 -0.04377767 -0.18451647 0.11988431
0.20110205 0.14233491 -0.012820118 -0.009692285 0.026318345 -0.10903922 -0.18718345 -0.015860768
0.1573523 -0.1210206 -0.021175068 0.0849257 -0.16172464 0.20221023 -0.1349669 -0.30455396
-0.21488152 -0.24015571 0.10096727 -0.15654385 0.10831645 0.0047604893 -0.18347035 0.18608212
0.44388127 0.054685265 0.08803369 -0.26696 -0.24153432 0.21559171 0.18208204 -0.12188786
0.0017626286 -0.13925706 -0.15515287 0.0056144707 0.013542129 -0.12544788 0.010115101 0.3606322
0.0273547 0.042935934 0.2171993 -0.067874126 0.009693065 -0.022155851 0.18292236 -0.121281005
0.30501693 0.22602756 -0.87548137 0.4348768 0.47479162 -0.010543833 -0.14135014 0.15278831
-0.0035349892 0.25274646 -0.09376714 0.38324448 -0.24953172 0.20112228 0.069930464 0.22534382
0.04688512 -0.042074956 0.10836078 0.15694903 0.13406849 0.033364408 -0.12642872 -0.067951605
-6.989081e-05 -0.24179603 -0.23986618 0.30394682 -0.20247369 0.17188968 0.021025497 0.16045235
-0.032251563 0.21706156 0.40022954 0.18940572 0.29355848 0.07873939 -0.016167462 -0.20589632
0.18890369 -0.2585822 0.048135787 -0.026228536 -0.006722003 -0.13581309 0.15938699 -0.07484298
-0.37020883 -0.04847942 -0.020717975 0.31242952 -0.18413314 -0.17875753 -0.26863742 -0.027752347
-0.19764625 -0.043177962 0.06543743 0.20704374 0.07724305 0.2321414 0.022215564 -0.15273927
0.010992333 0.22947063 0.008559658 -0.035636712 0.41568035 -0.117643245 -0.15425488 0.20106597
0.0854066 -0.1426797 0.4455735 0.19314426 0.24282748 -0.01619005 -0.18385457 -0.28241304
0.58185136 -0.11522332 -0.098152906 0.088007465 0.2760086 -0.1651605 -0.5432348 -0.041555755
-0.38651016 0.33129525 -0.6182135 0.39025962 -0.46816558 -0.17340612 -0.84917134 0.13989887
0.015453355 0.24132787 0.10096691 0.10488235 0.30147028 -0.3248367 0.07680958 0.40370873
-0.00033188422 -0.0057303743 -0.14284249 0.20834577 -0.012930363 0.14060915 -0.059343494 0.26143536
0.33375517 0.07147888 0.07597388 -0.14035897 0.27146733 0.28343815 -0.180757 -0.21137214
0.17903623 0.029328551 0.03821285 0.14476997 -0.1464839 0.17754912 -0.025548697 0.04100927
-0.36413974 -0.26098543 0.1836863 -0.0612998 0.11336897 0.064904645 0.11709895 -0.16724409
0.16992441 0.16912515 -0.16019426 0.029905591 0.21355397 0.23788324 -0.054600023 -0.008942087
-0.16736987 0.14926904 -0.0787887 -0.21081546 0.17731322 -0.16780314 0.10297969 -0.04237032
-0.060211487 0.012273939 0.19366701 0.06679081 -0.26989463 0.15437679 -0.1523517 0.22768658
-0.36361796 0.077997595 0.27021888 -0.09499112 0.03359422 0.03867946 0.17644784 0.13438231
0.41265732 0.22595435 -0.08199813 0.432875 -0.1594379 0.11764804 0.1845042 -0.06635954
-0.07061682 -0.048756547 0.27694583 0.11360014 -0.020926965 -0.16563506 -0.15994176 -0.28374594
0.10863787 0.2154799 -0.13562293 0.15207067 -0.17809658 -0.057359945 0.092282094 -0.034326468
-0.042445615 -0.035605803 0.20147648 0.34664655 -0.010859849 -0.10510295 -0.08012364 0.29668146

fcs2.bias f4 [16]
00000000: da60 2f3e d046 a8bd 17d7 b7bd 7e48 013e
00000010: 27e8 073e 4d68 013e 748e 6abc 6e0b e23d
00000020: 43af 38be f0ae d3bd dabf 19bd 046b ddbd
00000030: 7dd4 fe3c 3faa 203d 151e 1d3e 8d54 0abe
0.1712679 -0.082166314 -0.08976572 0.1262531 0.13272153 0.12637444 -0.01431619 0.11037336
-0.18035607 -0.10336101 -0.03753648 -0.10811427 0.031107182 0.03922486 0.15343507 -0.13508816

fca1.weight f4 [16, 1]
00000000: 9108 afbc a80a 2f3e 391f 993d 315b 69be
00000010: bd37 4d3f 2636 6cbe e479 913d c37a d33d
00000020: 4fbe 203f 7219 4b3d bf2a b93f 1ec9 00be
00000030: e14e 953d 56b0 313e bcfd ad3d f61c 2ebe
-0.02136639 0.17093909 0.074766584 -0.22788693 0.80163175 -0.23067531 0.07103327 0.10326149
0.6279039 0.049584813 1.446617 -0.1257672 0.072904356 0.17352423 0.084956616 -0.17003235

fca1.bias f4 [16]
00000000: fa02 233f 870a f73e 68a3 2cbe 69ea 703f
00000010: 7a71 983e 8468 eebe 9d1e 2b3f b656 eb3e
00000020: 807b 6a3f c7ea 02be 7ac6 0b3d 18f2 4c3f
00000030: 866b f83e aa98 993e 5091 51bf 88a4 33bf
0.63676417 0.4825022 -0.1685921 0.9410768 0.29774076 -0.46564114 0.6684359 0.45964593
0.91594696 -0.12784873 0.03412483 0.80056906 0.48519534 0.29999286 -0.81862354 -0.7017293

fc2.weight f4 [16, 32]
00000000: d008 2cbd 2085 0cbc 9ad5 68be 1877 30bd
00000010: 3c3d 12be fa38 70be 80e0 693b 56a1 5b3e
00000020: 90a8 483d f8e8 383d 449c 50be c86c 61be
00000030: f0bf 783d b8d9 fcbd 4804 51bd b695 14be
00000040: a8ed 4fbd e03c 433c b48c e3bd d4e7 f8bd
00000050: 40cd b0bb fa26 35be e89e 583e d08a 9ebc
00000060: f41e 08be 42b7 6b3e 8c67 a73d 2094 96bc
00000070: 1881 4ebe 701d 27be 4e88 3ebe 5c47 eebd
00000080: 44b1 9b3d 2618 0abd e749 b6bd a29c 903e
00000090: 2043 9ebe dc33 753e 002a e8bd 1a47 2b3e
000000a0: 156a a23d dc59 023c 886d 04be 118b 91bd
000000b0: 8bf2 88bb 6bd4 d13e a9c9 93be 345b d9bd
000000c0: f169 013e f617 8a3d 346e bb3d 271e 32be
000000d0: 0a95 33be c8ac 78be 622c dd3d 4594 a33e
000000e0: 757b fcbd c3f0 333e 1750 84bf 2892 0b3e
000000f0: 835a 923e 097c 693e 8ff0 d3bc 90a2 b23d
00000100: a855 923e f0ce 2b3e 97be 333e a550 093e
00000110: b05a 0cbf faf5 5a3e 7f35 903e 982a 3d3e
00000120: caef f3bc 1b32 8c3d 3346 55be 6715 313c
00000130: b1ed 44be 0038 a53e e91f 03bf 1290 6d3e
00000140: 40ad c8bd 21e4 843e 1daa 01be 212a 563e
00000150: 60ae c5be ec09 dbbd 109f df3d 6ddc 9e3e
00000160: 8733 a0bd 4421 ff3c 95c4 a9bf 0a99 323c
00000170: 206e 89bc 2fb5 cd3e 120f 7abe 50a5 82bd
00000180: 1e17 e43c 14aa 1a3c 29ef 383e 6d84 d1bd
00000190: ff1e 66be 7fa2 ca3d 5239 88bd 9048 b03e
000001a0: b720 1d3d b458 7d3e b39f 03be 4a0c 3ebe
000001b0: 9ce9 2abe 4ecb 9a3e 3aed 14bf 0af8 4abe
000001c0: e6f5 613e 0c89 193d 8015 1c3b 76dc 603e
000001d0: 2ced 25bd b085 173e ab2e a63e 7f6d bc3e
000001e0: 4ea1 20be a9a0 643e a584 98bf 688e 9d3d
000001f0: 635f 6e3e c13e 553e e0c0 ccbc 4c34 163e
00000200: 2177 ba3e 6085 12be feee 763e 924a 93bd
00000210: 3e52 1ebe 6c45 6b3e e186 0abe ae34 ce3e
00000220: 3479 e8bd e586 00be d892 3d3e 4a18 1a3a
00000230: 7d55 45bd 6dd5 773d e0fc d5bd 0dec 39be
00000240: 5799 a8bd 9419 1a3d 64a1 183e 17f4 db3d
00000250: 1f6e 0d3c 2ab8 1bbe 4853 533d 3656 cfbd
00000260: 6177 773e 000a 1e3a f493 26bf c234 343e
00000270: 8544 333e 4844 163e aa7d 313e 00c4 22ba
00000280: 6376 bb3e f5b5 d9bc 5e2c c7bb 93d3 a13e
00000290: 799f f8be 4225 06be 803b 7b3d 5559 863e
000002a0: 4eee 00be 73cc c5bd c003 f83d 2fce 03be
000002b0: 8f5e 153e 2ccb c53e 5c73 f0be d830 333c
000002c0: 7400 263e 6223 8c3e d184 153d a491 0e3b
000002d0: 5009 a33d 7a56 633e 9834 4abe a2cc b6bd
000002e0: 312b 1a3e e69e 1a3e e90e 9ebe 7a6d 673e
000002f0: 1d37 0dbe cd48 afbd c0e2 d43d 40bd 16be
00000300: 6b4b 943e 2e9e 463d b9c3 09be 7dd5 dabb
00000310: 42f6 90be ab97 d33d fdf5 14be b556 7c3e
00000320: 5917 6d3e 419f 4cbc 8605 4e3e bc24 383e
00000330: 3c87 133e d05b 16bd e76e cdbe 5969 883e
00000340: fcbf 7d3e b008 20bd 0346 adbd f401 4abd
00000350: c479 053e eff1 49bd 48dc e5bd 12b3 b33c
00000360: 6671 463e 64f3 273e 01c4 9ebe 7ce0 a43d
00000370: 89a7 1b3e 3064 453e b49a 5abe c098 283c
00000380: 5ce6 1c3e 76cb 9a3d 5632 1d3e d4ee ed3d
00000390: e2b9 8bbe fd2e 473e e367 093e a918 da3e
000003a0: 02b8 753e 1870 0b3e 1a2f a43d 5dc4 c03d
000003b0: 22a6 f83d b028 7f3e d2f7 83bd cda3 c5bd
000003c0: 479a 3f3d 88b3 8a3e 90fd 383e c870 1bbe
000003d0: 0f10 39be 32fe 033e f91d 54bd ee74 1f3e
000003e0: 37b5 863e fc95 c4bd 4c74 7dbe a5e4 80bd
000003f0: c4b4 793e 2eba 8f3d 8c92 2dbe 50ad c9bd
-0.04200059 -0.008576661 -0.22737733 -0.043082327 -0.14281172 -0.23459235 0.003568679 0.21448264
0.04898888 0.04514405 -0.2037211 -0.22014153 0.06072992 -0.12346214 -0.051029474 -0.14510235
-0.050763756 0.011916369 -0.11110821 -0.12153593 -0.0053955615 -0.1769065 0.21154368 -0.0193533
-0.13293058 0.23019126 0.08174047 -0.018381178 -0.20166433 -0.16319823 -0.18606684 -0.116347045
0.0760217 -0.033714436 -0.089008145 0.282445 -0.30910587 0.23945564 -0.11336136 0.16726342
0.0793039 0.007955994 -0.12932408 -0.07106603 -0.004179304 0.40982375 -0.28864792 -0.10613099
0.1263807 0.067428514 0.09151879 -0.17394315 -0.17537323 -0.24284661 0.10799481 0.31949058
-0.12328235 0.17572312 -1.0336941 0.13629973 0.2858468 0.22801222 -0.025871543 0.087224126
0.28580976 0.16778159 0.17553173 0.1340967 -0.5482588 0.21382895 0.28165814 0.1847328
-0.029777426 0.06845494 -0.2082756 0.010808325 -0.19231297 0.32269287 -0.51220566 0.2319949
-0.0979867 0.259553 -0.1266255 0.20914508 -0.386096 -0.10695252 0.10919011 0.31027547
-0.07822328 0.031143792 -1.3263117 0.010900745 -0.016776145 0.40177295 -0.24419811 -0.06379187
0.027843054 0.009439964 0.18059982 -0.10230336 -0.22472762 0.09894275 -0.06651558 0.3443036
0.038361277 0.24740869 -0.12853889 -0.18559375 -0.16690677 0.30233234 -0.5817448 -0.19821182
0.22066459 0.037484214 0.0023816526 0.21959099 -0.040509388 0.14797091 0.3245748 0.3680229
-0.15686533 0.22326912 -1.191548 0.076931775 0.23278575 0.2082472 -0.024994314 0.14668387
0.36419013 -0.14308691 0.24114606 -0.071919575 -0.1546106 0.22975701 -0.13528015 0.40274566
-0.11351243 -0.12551458 0.18513048 0.0005878253 -0.04817723 0.060506273 -0.10448623 -0.18156452
-0.08232372 0.03762205 0.14905316 0.10739916 0.008632212 -0.15206972 0.051593095 -0.10123865
0.24166633 0.0006028712 -0.6506951 0.1759825 0.17506607 0.14674485 0.17333093 -0.0006209016
0.3661376 -0.026576022 -0.006078287 0.3160673 -0.48559168 -0.1310015 0.06133604 0.2624003
-0.12590906 -0.09658136 0.1211009 -0.12871622 0.14586852 0.3863157 -0.46963012 0.010936938
0.1621111 0.27370745 0.036503617 0.002175429 0.079607606 0.22200957 -0.19746625 -0.08925749
0.15055539 0.15099677 -0.3087075 0.22600356 -0.13790555 -0.085588075 0.10394812 -0.1472063
0.2896379 0.048490696 -0.13453569 -0.006678282 -0.2831288 0.10331663 -0.14546962 0.24642451
0.23153438 -0.012489141 0.20119295 0.17982763 0.14407057 -0.036708653 -0.40123674 0.26642874
0.24780267 -0.039070785 -0.08460619 -0.04931827 0.13034731 -0.04930299 -0.11223656 0.021935973
0.19379196 0.1640144 -0.31008914 0.080506295 0.15200628 0.192765 -0.21348077 0.010290325
0.1532225 0.07558338 0.15351233 0.116178185 -0.27290255 0.19451518 0.13418536 0.4259694
0.23995975 0.13616979 0.080167964 0.09412453 0.12141062 0.24917865 -0.06443752 -0.09650383
0.04677799 0.27090096 0.18065476 -0.15179741 -0.18072532 0.12889937 -0.051786397 0.15571949
0.2631013 -0.0959892 -0.24751395 -0.062936105 0.24385363 0.07017933 -0.16950434 -0.0984751

fc2.bias f4 [16]
00000000: 1eea 353d 59d5 bdbd c219 09be 89da a8bd
00000010: 5ca6 003d c9b9 f8bd 8af6 c83d 248a 89bd
00000020: f507 b63d 8fe8 19bb 0b8b 02bd bcc8 753d
00000030: c208 06be 9d5d 673c 36a0 cdbd 38b0 2ebe
0.044412725 -0.092692085 -0.13388732 -0.08244807 0.031408653 -0.12144811 0.098126486 -0.06715801
0.088882364 -0.0023484563 -0.031870883 0.06000589 -0.13089278 0.01412144 -0.100403234 -0.1705941

fc3.weight f4 [1, 16]
00000000: 1d78 63ba e965 39be eee9 d9be 2256 d8be
00000010: c798 98bd b60d 8bbd ec90 40bc 4bf7 a4bc
00000020: c79c 15be ee75 febe ac83 03be b0ff 32bb
00000030: 1726 c6ba 67a1 3e3e 54c3 4fbd 2c1f 9cbc
-0.0008677261 -0.18105282 -0.42561287 -0.42253214 -0.07451015 -0.067897245 -0.011753302 -0.02013745
-0.14610587 -0.49699348 -0.12843198 -0.0027313046 -0.0015117553 0.18616258 -0.05072339 -0.019057833
