continuous_action_space/Models/100_actor.pt (torch, 173263 bytes, 7 tensors)

fc1.weight f4 [256, 5]
000000 50 86 ae 3d b8 77 0a bb 35 f2 c7 3d 0b 08 a9 39
       0.08521712 -0.0021128487 0.09762994 0.00032240184
000010 8d 1e be 3c 9b 22 84 bc d2 c8 9f bb 00 69 e7 3c
       0.023207927 -0.016129782 -0.0048762346 0.02824831
000020 da 42 8b 3d 7b 4e 61 3c 02 33 29 bd c6 35 5c bd
       0.0679986 0.013751621 -0.04130841 -0.05376222
000030 e2 b7 45 3d f4 55 47 3d 46 69 65 bd cd a9 c8 ba
       0.048271067 0.048665956 -0.0560086 -0.0015309394
000040 b3 b9 c6 bc 47 29 37 3c a8 eb 4c bd 35 fd be 3c
       -0.02425847 0.011179275 -0.050029427 0.023314098
000050 45 46 ab 3d 10 29 d5 3d 5c d8 f5 3d 54 07 a0 3d
       0.08363012 0.10408223 0.12004158 0.07813898
000060 f0 23 25 3c 19 2a 31 bd 61 df 89 bd bf 1a 2f 3c
       0.010079369 -0.043253038 -0.06732059 0.010687529
000070 00 85 54 bd f4 cd 4f 3d 3c 27 0d bc 8b e5 95 3d
       -0.05188465 0.05073352 -0.008615311 0.073191725
000080 51 35 0a 3c ee 69 52 3d be 82 48 bc ef f1 c9 bc
       0.008435563 0.051370554 -0.012238203 -0.024651496
000090 6c 3a fb bc 60 9d 51 bb c0 fe c1 3c ca c7 49 bd
       -0.030667506 -0.0031984672 0.023681045 -0.0492628
0000a0 92 77 c4 3c 63 cf 61 3d c8 de b8 3a 56 f5 a2 3d
       0.023982797 0.05512942 0.001410448 0.0795695
0000b0 b0 d1 42 bc 25 59 be 3d 28 25 55 3d ab a7 f4 3c
       -0.011890814 0.09294347 0.052037388 0.029865107
0000c0 4e 20 a3 3d 80 e4 39 3d 72 d5 7c bd d4 9b bc 3d
       0.07965146 0.04538393 -0.061726995 0.09209409
0000d0 20 61 4b 3d 41 ec 1d bb d4 1d 35 3b 54 57 3d 3d
       0.049653172 -0.0024097117 0.0027636187 0.04622586
0000e0 8f 7e ca bc 05 21 ac bc e1 73 26 bd 93 39 eb 3c
       -0.024718551 -0.021011839 -0.040637854 0.028713977
0000f0 7a 41 95 3b ad 2c 10 3d 15 48 2c bd 46 69 e5 bc
       0.0045549246 0.035198856 -0.04206093 -0.0280043
000100 23 cc 4e bd 45 d4 21 3d 71 8e 81 bb 07 1b ad 3d
       -0.05048765 0.039509077 -0.003953748 0.08452421
000110 37 9d f9 3c 0b 08 29 3d 3b d9 44 3d 7a 97 b1 3d
       0.030470474 0.041267436 0.04805873 0.0867147
000120 38 6e c1 3d c6 b6 06 3c 90 40 f1 3b 8f a0 36 3d
       0.09444851 0.0082222875 0.007362433 0.044586714
000130 a1 61 f2 3c f3 0b a9 3c 8d e6 63 3b 3a 20 80 3d
       0.029587569 0.02063558 0.003477487 0.06256147
000140 92 93 b1 3c c7 33 07 3d ec b3 a9 3d f5 ee b4 3d
       0.021676812 0.033008363 0.082862705 0.0883464
000150 37 fc 37 3d d0 e0 1b 3d 1e ab a2 3d f3 b7 61 3d
       0.044918265 0.038056195 0.07942794 0.05510707
000160 63 cd 8c 3c bb c8 f5 bc 67 88 ad bc ce fd 8f bb
       0.01718778 -0.030002942 -0.021183206 -0.0043942695
000170 97 80 ad ba 74 ee 8d bd 27 eb 25 3d 7a fe 43 3d
       -0.0013237175 -0.06930247 0.040507462 0.04785011
000180 f1 df cc 3c 45 0e 51 3d 0c 9b 97 3d ed f2 50 3d
       0.025009127 0.051039 0.0740262 0.051012922
000190 34 6a 50 bd ac bd 62 bd fe eb e6 3c fd 69 ee 3b
       -0.050882533 -0.055356666 0.028188702 0.0072758184
0001a0 3a b6 8a bd 9b f7 f5 ba 44 03 da 3c 36 24 a3 3d
       -0.06773038 -0.0018765809 0.026612885 0.07965891
0001b0 6c 6f aa 3d 7d 47 db 3c 75 3e ab 3c c5 a0 18 3d
       0.08322033 0.026767487 0.020903805 0.037262697
0001c0 cb 81 96 3b d4 8a 46 3d 26 8b 19 3d 6c 75 87 3c
       0.0045931092 0.04847224 0.037486218 0.016535483
0001d0 dc 32 2b bd 8a 01 08 bd e8 5e 1e 3c 0e cd 4b bd
       -0.04179655 -0.033204593 0.009666182 -0.049756102
0001e0 3a 40 57 bd f8 cb 41 bd 92 b5 9d 3d 37 2b 70 bd
       -0.052551486 -0.04731366 0.077006474 -0.058634963
0001f0 e9 5e 14 3d 04 cc 96 3d f8 03 9c 3b 82 b5 81 3b
       0.036223326 0.07363132 0.0047612153 0.003958405
000200 8e be f8 3c 0d 46 49 3c cd 32 47 3d 7a cf 0b 3c
       0.030364301 0.012284768 0.04863243 0.008533353
000210 02 bc 27 3c 03 40 75 3d 71 5c 26 3d 48 8c 46 bc
       0.010237696 0.0598755 0.040615503 -0.012118407
000220 34 49 5e bd f3 56 4e bd 1a b4 10 3d 00 97 b8 b9
       -0.05426903 -0.05037589 0.03532801 -0.0003520772
000230 9c d9 b3 3b 8a d1 7c bc a2 e3 ea 3b 20 ef c1 bc
       0.0054885875 -0.015430817 0.007168249 -0.023673594
000240 ce 0a 5c bd 14 56 ff ba 60 80 4b 3d 0c ae e2 3a
       -0.05372124 -0.0019480609 0.049682975 0.0017294302
000250 55 46 47 3d 12 17 58 3c bb c1 a8 3d b7 3a b8 bc
       0.04865106 0.013189094 0.08240076 -0.022488935
000260 79 3c 9d 3d 44 a2 46 3d d0 b3 38 3d 0f 9b de bb
       0.0767755 0.048494592 0.045093358 -0.006793387
000270 09 25 9d 3d fc 84 0d 3d 40 d1 37 3d 8c 6d 8d 3d
       0.076730795 0.034550652 0.04487729 0.0690566
000280 df 8c 70 bd 91 e4 55 bd 67 bc dd bc f9 a1 01 3d
       -0.058728095 -0.05221993 -0.027067376 0.03164861
000290 96 14 23 bb 9a 12 95 3b f8 dc 37 3d c8 56 c1 3d
       -0.0024884096 0.0045493366 0.044888467 0.0944038
0002a0 fa 0f 61 3d fa a3 56 3d 16 53 23 bc db 49 58 bd
       0.054946877 0.052402474 -0.00996854 -0.05280481
0002b0 b1 e7 30 bd 5f 59 67 3b 65 6d c7 bb 51 40 81 3c
       -0.04318971 0.0035301072 -0.006086039 0.015777739
0002c0 1c a6 aa bd 6b 80 a0 bc d3 bf fd bc 97 69 b8 3c
       -0.08332464 -0.019592484 -0.030975258 0.022511287
0002d0 0d 84 22 bd 15 f8 8e bd 2b 7d 8d bc 45 df 98 bc
       -0.039676715 -0.06980912 -0.017271599 -0.01866115
0002e0 3d e3 34 bd 61 5e df bd d8 e3 4c 3d 4e 22 78 bc
       -0.044162024 -0.10906673 0.050021976 -0.015144898
0002f0 76 56 6e bc 18 f1 88 3d f0 a2 fa 3c da b4 94 bd
       -0.014546981 0.0668661 0.030595273 -0.07261057
000300 fe e4 99 3c f5 9a 6d bd 13 98 82 bd a3 c7 7d 3c
       0.01878595 -0.058009107 -0.06376662 0.015489492
000310 1f bd e6 3c bd 27 b4 3d c9 84 72 3c ef 84 38 3d
       0.028166352 0.08796642 0.014802166 0.04504865
000320 80 c4 74 ba ab c1 0c 3d 7c 2c fb bc 0c e2 db bc
       -0.0009337142 0.034364384 -0.03066086 -0.026841186
000330 9e de 51 bd 0d 41 d1 3d 59 87 8a 3d b7 a7 c9 3d
       -0.051237695 0.102174856 0.06764097 0.09846442
000340 a4 74 04 3e 52 74 b1 3c 2d e3 98 3d 40 21 d5 bb
       0.1293512 0.021661911 0.07465205 -0.006504208
000350 2e 0c d2 3a 4f 59 cb 3a e5 ea ee bc c9 6d fd bc
       0.0016025358 0.0015514287 -0.02916474 -0.030936139
000360 b8 cf fb bc 59 7c 93 3d 26 08 1a 3c 4f 9e f1 39
       -0.030738696 0.07201452 0.009401357 0.0004608505
000370 91 bb 1c 3c 4d ae 99 3c bd cb 98 bd 8f c7 1a bd
       0.009566204 0.01875987 -0.07460735 -0.03778797
000380 53 fc a8 3d c0 1a 8c bb b8 09 a2 bc c8 c0 6a 3c
       0.08251252 -0.00427565 -0.019780025 0.014328189
000390 09 5f 4c bd a8 a5 4d bc 9c 45 be bc 24 a4 63 3d
       -0.04989532 -0.012551703 -0.023226552 0.05557646
0003a0 be b4 a3 bc 7c 24 21 bd e0 95 92 bd ee 31 f8 3c
       -0.019983646 -0.039341435 -0.07157493 0.030297246
0003b0 50 75 38 3d 57 8f 5e bc a5 7b 51 3c db b0 6a 3d
       0.045033753 -0.01358398 0.012785827 0.05729757
0003c0 23 04 a9 3c 3e a5 5b bd 65 ce 5a bd fb 18 83 bd
       0.020631855 -0.053624384 -0.05341949 -0.06401249
0003d0 bd 6c 5a 3d 0c c4 c8 bc 61 31 7c bd 60 d8 e1 bb
       0.053326357 -0.024507545 -0.06157053 -0.006892249
0003e0 44 ea ec bc 00 90 4b bd a6 14 bf 3c b9 12 cd bc
       -0.0289203 -0.049697876 0.023325276 -0.025033342
0003f0 e9 48 26 3c 79 1a 31 bb cf b9 37 bc cc 1c d9 3d
       0.010149219 -0.0027023836 -0.011213734 0.10601196

fc1.bias f4 [256]
000000 a0 4f ae 3e 87 d6 ad 3e 64 9a 2a be be 71 52 be
       0.34045124 0.33952734 -0.16660458 -0.20551202
000010 db 76 bb 3e 36 4b 87 be c7 b0 87 bd 3d d8 bd be
       0.36614117 -0.2642457 -0.066255145 -0.3707904
000020 29 a2 d5 3e 1c 3f 18 3e e7 c6 ad be a0 6b 9b bc
       0.4172528 0.14867824 -0.33940813 -0.018972218
000030 dc 8c a9 3e 6c 10 ec 3d 43 ca b1 3e ce 80 8f be
       0.3311528 0.1152657 0.34724626 -0.28027958
000040 05 3d 99 3d 71 02 60 be 1c c8 16 be 87 bf 38 3e
       0.07482342 -0.21875931 -0.14724773 0.18041812
000050 ef 1e ad be 6a e2 ba bd ba 55 9e 3e 68 c7 8c be
       -0.33812663 -0.09125216 0.3092478 -0.27495885
000060 48 79 54 be d0 da 9c 3e de 4d c9 3e 86 a4 ba be
       -0.2074939 0.3063569 0.3931722 -0.36453646
000070 21 16 a6 3e 88 08 89 be 04 f5 cf 3c f6 00 79 be
       0.32438758 -0.2676432 0.025385387 -0.24316773
000080 79 e8 d5 be ef f6 41 be 2e b6 b5 bc cb d7 32 bd
       -0.41778925 -0.18941854 -0.022181597 -0.043662827
000090 78 71 d4 bb 17 20 41 3e 11 2e cd 3e 08 e2 cb 3d
       -0.006483253 0.18859898 0.40074208 0.099552214
0000a0 73 45 dc be b3 42 c5 3e 22 3e 58 be 60 0e c2 3e
       -0.43021736 0.3852745 -0.21117452 0.37901592
0000b0 0f 00 9c be 59 e2 cc be 79 3c 9d 3e fc 8f 04 3e
       -0.30468795 -0.4001644 0.307102 0.1294555
0000c0 27 b3 cb be 72 a6 44 bc e8 cb a5 3e 90 5a 09 3e
       -0.3978512 -0.012002574 0.3238213 0.13413453
0000d0 66 a6 6f 3e ff 6c 91 3d 91 00 c3 3e 2c 17 91 be
       0.2340332 0.071008675 0.3808637 -0.2833799
0000e0 cc 61 ff 3e 3a 67 bb be b4 58 33 3d ec 8b 3e 3e
       0.498793 -0.36602193 0.043785766 0.18608063
0000f0 04 f5 cf 3e ef 50 88 bd c5 07 ab bd 13 22 4f be
       0.4061662 -0.06656062 -0.08351091 -0.20227842
000100 f4 4a d0 3d 96 d6 c9 be 88 15 55 3e 50 79 da be
       0.10170546 -0.3942153 0.20808995 -0.4267068
000110 40 1b 56 be 75 49 22 be 91 e2 80 3d b8 50 a6 be
       -0.20908833 -0.15848334 0.06293214 -0.3248346
000120 6c fd a0 3e fb e0 28 be 02 57 6a be ff fc dc 3e
       0.31443346 -0.16492073 -0.22884753 0.4316177
000130 f7 ed ad 3e 36 90 ad be 09 f2 3a be 8e ef 05 be
       0.33970615 -0.33899087 -0.18256392 -0.13079664
000140 7e 1a f8 bd 5e f1 06 3e a0 b0 c1 bd 82 9b e9 3e
       -0.12114428 0.13178012 -0.09457517 0.45626456
000150 55 8b ed 3e 6c ba 4f bd 49 46 72 3d a9 a6 26 be
       0.46395364 -0.050714895 0.05914906 -0.16274513
000160 ec a4 3e bd d5 66 85 3e 95 9f 76 be 93 28 f5 3e
       -0.046544 0.26055017 -0.24084313 0.47882518
000170 e4 2e c7 bd d3 50 17 be 1d 24 a9 be d0 36 38 be
       -0.097257406 -0.14776926 -0.33035365 -0.1798966
000180 c8 29 de 3e dc 36 c7 be cc 5d 3b be c0 98 94 be
       0.43391252 -0.38909042 -0.182975 -0.2902279
000190 27 f3 f9 3e e9 8d cc 3e a4 87 cf 3e c2 a7 9e bd
       0.48818323 0.3995202 0.40533173 -0.07746841
0001a0 8b 13 47 be 9e 44 37 3d 6a ed 31 bc 0b 58 c6 be
       -0.19441049 0.044743173 -0.010859827 -0.38739046
0001b0 4c 98 ab be 81 88 9e be 7f da 49 3e e0 a6 08 3e
       -0.3351463 -0.3096352 0.19712256 0.13344908
0001c0 7d bd 8e 3d 34 a8 29 bd 84 26 84 3e 9a 2e 02 3f
       0.06969736 -0.041420177 0.25810635 0.5085236
0001d0 c4 b7 8d 3e d3 de 8d be 4d b6 6d bd 3b 93 97 be
       0.27679265 -0.27709064 -0.058035184 -0.29604515
0001e0 59 3e ba be bc 59 ce 3e e4 a0 d0 be ca 39 4d 3e
       -0.36375692 0.40302837 -0.4074775 0.20041576
0001f0 d4 ef 03 3e f9 fd 9c 3e 67 3f 5d 3d ac 43 85 be
       0.12884456 0.30662516 0.054015543 -0.26028192
000200 5f 1a 00 3e 85 8e e4 bc 0b 74 b3 be 72 c8 b0 bd
       0.1251006 -0.02789999 -0.3504947 -0.08631982
000210 db 16 76 be e3 72 1f 3b 42 87 e0 3e a9 9b af 3e
       -0.24032156 0.0024329952 0.43853194 0.34298447
000220 be b6 f8 bd 57 7d 9a 3e fc 24 48 3e dd 93 76 be
       -0.1214423 0.30173752 0.19545358 -0.24079843
000230 d6 4f 10 be da 0a b1 3e ff f6 5d 3d f0 1f fb 3d
       -0.14092955 0.34578592 0.054190632 0.12261951
000240 92 32 9e 3e 8a 79 8b 3e ac 1e f6 3e 88 98 54 3e
       0.30897957 0.27241164 0.48070276 0.20761311
000250 6f 11 24 be 64 12 33 be 2c 45 b3 3e 6d 63 2c be
       -0.16022275 -0.17487484 0.3501371 -0.16834803
000260 86 8d 5d be 07 2b 9c be 92 66 ce be 24 59 3e be
       -0.21636018 -0.30501577 -0.4031263 -0.18588692
000270 b4 97 da be 43 fc 8c 3e 21 d8 cc 3e 32 b6 fc 3d
       -0.42693865 0.2753621 0.40008643 0.123394385
000280 b5 1d c7 be 0d c4 d0 3e ec 03 47 bd 3c 99 96 3d
       -0.38889852 0.40774575 -0.048587725 0.07353446
000290 a1 32 ba bd a6 57 90 3e 36 e1 d1 3c d7 54 08 be
       -0.09091688 0.2819187 0.025620084 -0.13313614
0002a0 2e 9a 48 3d 5c 80 04 3f e6 cc 2c 3e 33 04 45 3e
       0.048975162 0.5175836 0.16875038 0.19239883
0002b0 ed 3b a1 3e 08 20 25 3e 11 f4 9d 3e eb e4 95 be
       0.31491032 0.161255 0.3085027 -0.29276213
0002c0 b9 bc b0 3e de 03 1e be 8f e3 87 3d 12 a0 d6 3e
       0.34518984 -0.15431163 0.066352 0.41919
0002d0 68 76 30 bc f3 f4 33 be 8b 08 d0 be f5 f3 ac bd
       -0.010770418 -0.1757391 -0.40631518 -0.084449686
0002e0 f1 73 c2 be 5d bf ab 3e 70 a9 99 bd 9e 28 4a 3c
       -0.3797908 0.33544436 -0.07503021 0.012338785
0002f0 d3 85 ce bd 58 44 b9 be 3a 3a 58 bc c4 1f ee bd
       -0.10084119 -0.36184955 -0.013197476 -0.116271526
000300 e3 00 96 be a8 e6 d4 bb ab 49 84 be 42 f7 94 3e
       -0.29297552 -0.006497223 -0.25837454 0.29094893
000310 d7 2d a4 bd 66 5b ca be 87 1b d4 3e a7 0e 00 3d
       -0.08016556 -0.39522856 0.41427252 0.031263974
000320 3e 89 ee 3e d2 97 4a be a8 61 00 bd 5f a8 b6 be
       0.46589082 -0.19784477 -0.031343132 -0.35675332
000330 fb 1a 58 3e 10 e4 2e 3d cb d7 32 3e bd 5c 8b be
       0.21104042 0.042697966 0.17465131 -0.2721919
000340 39 7e b0 3e 49 89 c3 be 63 c4 ea 3e 99 cf c3 3e
       0.344713 -0.38190678 0.45852956 0.38244322
000350 b1 77 7c be 6a 9f 69 3d fa 41 3c be a6 6a db 3e
       -0.24655034 0.057036795 -0.18384543 0.42854804
000360 db 92 a8 be d9 f4 42 bc 46 4b 23 be 2a ac c5 be
       -0.32924542 -0.011899197 -0.15946683 -0.38607913
000370 d9 ba 93 3e 8a 57 9f be a6 42 f0 3d 07 33 bd be
       0.2885349 -0.31121475 0.11731462 -0.36952993
000380 2c cf 7f 3e 83 6d 7f be 84 3d e2 be a6 a2 35 be
       0.24981374 -0.24944119 -0.44187558 -0.17737827
000390 20 cb 80 be d5 e9 04 be 8a c5 fe bd 8e be f8 3d
       -0.25154972 -0.12979825 -0.12440021 0.121457204
0003a0 1b e0 d9 be 01 8f bc bc 79 d7 df bd a0 2d 54 be
       -0.4255379 -0.023017408 -0.1092977 -0.2072053
0003b0 05 d6 06 be 43 fc 8c bd f9 53 b9 3d b6 f6 98 3e
       -0.1316758 -0.068840526 0.0904922 0.29875726
0003c0 71 18 cd bd 14 1c d0 3e 4c e9 cf 3d 9e a0 d2 3e
       -0.100144275 0.40646422 0.1015192 0.41138166
0003d0 c2 ca 58 bd a2 cd 7c bc c3 b7 0d be 57 8f de 3d
       -0.05292774 -0.015429886 -0.13839631 0.10867184
0003e0 a8 f7 80 be 5b fa e1 3e ae 0c f9 bd 96 93 78 be
       -0.25188947 0.4413632 -0.121606216 -0.2427505
0003f0 94 d6 e2 be 63 a6 a8 be 3c 1d e4 bc 38 36 e7 3e
       -0.44304335 -0.32939443 -0.027845971 0.45158553

fc2.weight f4 [128, 256]
000000 5f 36 ad 3d 07 bf 91 3c 2e b6 35 3c 9c 89 96 3d
       0.08457636 0.017791284 0.011090798 0.07350466
000010 df 29 08 3e ab c3 61 3d 46 78 06 3e 60 b1 b0 bd
       0.13297223 0.055118244 0.13131818 -0.086275816
000020 5a b0 c3 3d 4d b4 18 3d 9f 65 1c bd 78 55 67 3d
       0.09555121 0.037281323 -0.03818285 0.056477994
000030 b2 9c 8b 3c 0a be 0a 3e 12 1b 02 3e 86 97 86 3c
       0.017042492 0.13549057 0.12705639 0.016429674
000040 23 04 29 3d eb 63 8c 3c 42 3c bb 3d 1b 56 8d bc
       0.04126371 0.017137488 0.09142353 -0.017252972
000050 7f 57 ca 3d b4 a8 50 bb 0e 68 b5 3d 1e 24 8f 3d
       0.0987997 -0.0031838836 0.088577375 0.06989311
000060 5f e5 08 bd 20 cb 00 bd 3d 92 90 bc 77 5b 66 bd
       -0.03342187 -0.031443715 -0.017647857 -0.05623957
000070 ef 90 b6 3d 08 f3 c1 3c ac 13 ff 3d fd 6f 6d 3d
       0.08914363 0.023675457 0.12454924 0.05796813
000080 d6 d7 87 bd be bc f7 3b 42 04 e1 3b 47 45 24 3d
       -0.06632964 0.0075603416 0.0068669626 0.04010513
000090 60 8b c2 3c 30 88 cb 3d 94 26 a0 3d ff ef 90 3b
       0.0237481 0.09938085 0.07819858 0.004423141
0000a0 d7 7c 93 bd f4 a4 16 3e ef 56 87 3d 2a 6f 73 3d
       -0.07201546 0.14711362 0.06608378 0.059432186
0000b0 ca e3 b0 3d e5 64 ce 3c 14 f3 16 3d e7 81 07 3e
       0.08637197 0.025194595 0.03685291 0.13233148
0000c0 8d 7f 51 3d 16 37 b6 3d e2 d3 b2 bb 28 eb a5 3d
       0.051147033 0.088972256 -0.0054573873 0.08101493
0000d0 dc 3d 5a bc 30 43 25 3d c5 8b 78 bb 7b 7c 25 bd
       -0.0133204125 0.040347278 -0.0037925106 -0.040401917
0000e0 38 41 5e 3c 19 25 b9 3d 9f fb e6 3d 4c c7 e3 ba
       0.013565354 0.09040279 0.11278462 -0.0017378121
0000f0 bb 06 4f 3d 67 43 07 3e 44 14 d0 3d c8 8e 9b 3c
       0.050543528 0.13209306 0.10160115 0.018988982
000100 7f 0e fa 3d 5a f3 94 3c 93 3e 63 bc 4a 6e d6 3c
       0.12209796 0.018182445 -0.013869899 0.026175637
000110 99 9d 68 3c 76 8e c8 3d 2d 55 a2 3c 0f 35 d3 3d
       0.01419773 0.09792797 0.019816006 0.103128545
000120 e2 c8 3b bc 8d d3 18 3d e2 c3 43 3d be 26 2d ba
       -0.011461468 0.037311126 0.04779423 -0.00066051993
000130 28 70 fa 3d 79 6b 55 3d 44 01 05 bd 55 7e 21 3d
       0.12228423 0.052104447 -0.03247191 0.03942712
000140 05 dc 05 3e 95 d7 50 3d 84 ea ff 3d c8 27 09 3e
       0.13072212 0.050986845 0.12495902 0.13394082
000150 e9 a9 b9 3d 14 99 52 3d eb 8c c5 3d bf 47 12 bb
       0.09065611 0.051415518 0.096460186 -0.0022320596
000160 9a 8f 45 3d 2e 44 ac 3d 1e f5 c0 bc 5e 54 ef 3d
       0.048232652 0.08411442 -0.023554381 0.11686014
000170 9c 06 97 3d 64 46 63 3d cb 30 ae 3d c4 d5 cf 3d
       0.073743075 0.05548705 0.085054 0.101481944
000180 13 ee 1e 3e f4 4a d0 bb 71 85 df 3c d6 98 f6 3c
       0.15520506 -0.0063565914 0.02728531 0.030102175
000190 3b 8e 1f 3e 3e 0a 19 3d 3d 2c 85 3d 20 43 89 3c
       0.155816 0.037363283 0.065025784 0.01675564
0001a0 a5 6e 85 3c a1 0b d6 3d 4a 5a 0b 3e 46 5e 6e 3d
       0.016288111 0.10451437 0.13608661 0.058195375
0001b0 99 a0 8b bc d8 c0 12 3e 58 6b 9d ba 96 ed 3e 3d
       -0.017044352 0.14331377 -0.001201014 0.0466133
0001c0 eb 63 0c 3c 18 97 c2 bc 96 09 ac 3d e3 ac 4e 3d
       0.008568744 -0.023753688 0.08400266 0.050457846
0001d0 14 a4 c7 bc f5 8f 76 3c d1 e5 93 3c 9d 56 b4 3d
       -0.02437023 0.0150489705 0.018053921 0.08805583
0001e0 44 5f f5 3d 6f da ad 3d 1e ea c9 ba 11 79 72 3d
       0.11981061 0.084889285 -0.0015404855 0.05919749
0001f0 a1 21 44 bc a9 c2 13 3c 16 e3 ee 3d e4 0b 0d 3d
       -0.011970908 0.009018579 0.11664407 0.034435168
000200 8b 80 d8 3d 2f e8 90 3c df 7f 24 3d 55 46 47 3c
       0.105713926 0.017688839 0.04016101 0.012162765
000210 4e 87 b5 3d e4 fc eb 3d 6b 2a 84 bc c1 4c 0a 3e
       0.08863698 0.115228444 -0.016133508 0.13505842
000220 07 6b 4a 3d 01 a0 3a bb 5a e2 1e bd 69 06 7c 3d
       0.049418475 -0.0028476717 -0.038790084 0.06152955
000230 b8 a6 42 bd e8 16 4b 3d 10 8a e8 ba 16 e1 19 3d
       -0.047522277 0.049582392 -0.0017741341 0.037568174
000240 ce c5 b5 3c 8a f6 0b bc 0f 17 91 3d 52 a1 14 3e
       0.022189047 -0.008542666 0.07084476 0.14514664
000250 1a b8 a7 bd 84 1b 8d 3c 62 2b fd 3d 94 a3 20 3e
       -0.081894115 0.017225035 0.1236179 0.156874
000260 7d 4b 05 3e f3 c6 02 3e b9 79 5f 3d e3 9f 02 3e
       0.13017078 0.12771206 0.054559443 0.12756304
000270 5e f1 06 3e 7b da 02 3e bb 94 c5 3d 16 e1 99 3d
       0.13178012 0.12778656 0.09647509 0.07513635
000280 59 37 71 bd f4 a0 ec 3d 84 8d 96 3d 83 e9 31 3d
       -0.058890674 0.11554137 0.07351211 0.043435585
000290 98 2f 09 3e 62 b9 f3 3d b2 8b 95 bc 08 c6 de 3c
       0.13397062 0.11900593 -0.018255088 0.027194038
0002a0 79 58 0a 3e d8 b5 9b 3a 4f 86 2e bc 30 ed 88 3d
       0.13510312 0.0011879755 -0.010652139 0.06685865
0002b0 96 a4 ee 3d e0 6e 2e 3e e1 1d 8a 3d e0 92 75 3c
       0.11652486 0.17034483 0.0674398 0.014988631
0002c0 ae af 8f 3c 58 c1 94 3c 4c 66 d0 3d 8c 61 8f bc
       0.017539825 0.0181586 0.101757616 -0.017502569
0002d0 fc 95 03 3e 54 1d 0e 3e 87 5e a5 bc 18 8c cb 3d
       0.12850183 0.13878375 -0.020186676 0.0993883
0002e0 ab 94 a9 bb d8 b1 f1 3d 17 f7 07 3d 9f 8f dc 3d
       -0.0051751933 0.11801499 0.033194628 0.10769581
0002f0 18 c6 fa 3d a6 f2 d2 3c 6e 74 a2 3d 0b 02 2a bc
       0.12244815 0.02575047 0.079323635 -0.010376464
000300 36 58 d3 bc e3 d3 b2 3b 7a c6 e9 3d 5d 4f f7 3d
       -0.025798898 0.005457388 0.114148095 0.12075684
000310 04 9f b3 3d c2 9e fc 3d 12 d8 b0 3d b9 79 df 3d
       0.08770564 0.12334968 0.08634962 0.10911889
000320 ba bc b0 3d fb 5b 91 bd fe 56 a3 3d 6c 22 b1 3d
       0.08629747 -0.07097622 0.07975577 0.086491436
000330 66 32 11 bd ae b4 07 bc 8f f6 52 3d db dd 4a bd
       -0.035448454 -0.0082828235 0.051504668 -0.049527984
000340 db 9d 1f 3c 36 3a 0e 3c c3 bf e1 3d 58 e3 a5 3c
       0.0097422255 0.008680871 0.11022904 0.020250008
000350 6b 5f bb 3d 3e 7c a2 3d 8b a7 3c bb 58 7c 13 bd
       0.09149059 0.079338536 -0.0028786387 -0.036007255
000360 e9 82 55 3d 3b 0d 75 3d e4 f4 97 ba f9 53 b9 3d
       0.0521268 0.05982707 -0.0011593369 0.0904922
000370 cf 76 e6 3d ad 3f 5b 3c 44 79 8d 3d f2 0d ac 3c
       0.1125313 0.013381881 0.06907895 0.021002743
000380 e9 66 e8 3d 33 e2 d8 3c 32 f1 8d 3d fe b1 b7 bb
       0.113477536 0.026475048 0.0693077 -0.005605935
000390 0d e5 35 bc c9 9e 8a 3c 56 78 22 3e f3 d3 4e 3d
       -0.011101973 0.016921418 0.15866217 0.0504951
0003a0 8f 9a 37 3d e3 61 90 3a 83 c8 d6 3c c8 3a 1d 3d
       0.044825133 0.0011015501 0.026218658 0.038386136
0003b0 7d f7 3d 3d 18 58 9b 3d a2 10 ce 3d 3e 87 99 3d
       0.0463786 0.07585162 0.10061766 0.074964985
0003c0 b5 70 2a bd 21 af 13 3d 87 9e d3 3d cb 04 96 3d
       -0.041611392 0.036055688 0.10332971 0.07325133
0003d0 21 f4 39 3e f1 df cc 3d eb c4 9f 3d 34 c4 96 3d
       0.18159534 0.10003651 0.07801231 0.073616415
0003e0 9a 59 2d bd bb 6d e1 3c 24 0b f6 3d 42 15 d7 3c
       -0.04232178 0.027518144 0.12013844 0.026255254
0003f0 93 c8 24 bb c5 c9 51 bc 07 53 07 3e 09 c4 09 3d
       -0.0025143966 -0.012804453 0.13215266 0.03363422

fc2.bias f4 [128]
000000 e2 ea a7 3d 9b ec fe 3c 9c 99 85 3c 52 04 7d ba
       0.08199097 0.031118682 0.016308598 -0.0009651828
000010 8b f6 8b 3d b4 28 29 bd 54 9a 8e 39 f0 3f 92 bd
       0.06834134 -0.041298583 0.00027199334 -0.07141101
000020 08 ae 1b bc 00 e6 e7 bc 7b 4c 0c 3c e4 12 da 3d
       -0.0095019415 -0.028307915 0.008563156 0.10648134
000030 ac c6 84 bb ec 25 b3 bc c6 28 10 bd 7a b3 9e 3d
       -0.004052004 -0.021868668 -0.035195135 0.07749076
000040 34 e0 83 bd d3 5c 95 ba 41 8b 0a bd 0f 96 66 bd
       -0.06439248 -0.0011395462 -0.03382421 -0.05629545
000050 bd 5b 64 bb 12 60 28 3d e0 18 92 bd d0 41 21 3c
       -0.003484472 0.041107245 -0.07133651 0.009842351
000060 e9 e1 13 3d 63 1f 7f b9 1e 17 2d 3d aa b1 1d bd
       0.036104117 -0.00024330388 0.042258374 -0.03849951
000070 ad 32 8f 3c a4 04 50 bd 9e 0a 08 3c 7c a3 f6 3c
       0.017480219 -0.050785676 0.008303313 0.030107252
000080 bd af 2b 3d 90 22 2f bd d0 cf 25 bd ac 16 a2 3c
       0.041915644 -0.04275757 -0.04048139 0.019786201
000090 37 45 08 bd 33 e6 82 3e 29 1d 81 bd 7c 2f 98 bc
       -0.033269133 0.25566253 -0.0630439 -0.01857733
0000a0 ec e5 04 3d c0 1a 2f bd 92 21 a8 3c 68 28 e8 3d
       0.032445833 -0.04275012 0.02052382 0.11335832
0000b0 8d ac 34 ba 5e d5 19 bb e6 70 11 3d 72 bc 32 3d
       -0.0006892167 -0.0023473124 0.03550806 0.043636747
0000c0 ea e0 0c bd 51 1b 72 bd 0e a5 07 3c da 0a 31 bd
       -0.034394182 -0.059108082 0.008279098 -0.04322324
0000d0 20 72 41 3d 76 c6 a2 bd af 1b 1a bd 75 65 8f bd
       0.04722798 -0.0794801 -0.037624057 -0.07001773
0000e0 4f 21 f1 3c 3e 92 90 bd 6e 47 3f bd da 1f 71 bd
       0.029434828 -0.070591435 -0.04669898 -0.058868267
0000f0 87 0a de 3c 7e fc 35 bd 24 6e cb bc 67 3d 08 3d
       0.02710463 -0.04443025 -0.024832793 0.033261683
000100 4c 05 bd bd 13 98 82 3c ea f9 56 bd 75 94 c7 3d
       -0.09229526 0.015941655 -0.05248443 0.09745113
000110 0b 90 a0 3c 34 c4 96 bc ae 2c 90 bd 6c 7c 76 bd
       0.019599935 -0.018404104 -0.07039772 -0.06017725
000120 77 53 92 bb 00 d5 f1 3c 78 37 a5 bd 25 53 bf 3b
       -0.004465516 0.029520512 -0.080672204 0.005838769
000130 e9 20 bb 3c 88 42 38 bd 4a 94 ba bb 32 5e 0b bd
       0.022842841 -0.044985324 -0.005693947 -0.03402538
000140 6e 6e a3 bd fb a8 4e bc f8 77 7a bb ce 3c 37 3c
       -0.07980047 -0.01261353 -0.003821848 0.011183931
000150 37 3c e6 3c e9 80 00 3d 70 58 d5 bb c2 80 3a bd
       0.028104885 0.03137294 -0.0065107867 -0.04553295
000160 57 b7 c9 3d 65 17 2b 3d 1d 12 b5 bc c9 6c 2f bd
       0.098494224 0.041770358 -0.022103364 -0.042828355
000170 8f 1d b7 bc 32 33 fd 3b e6 76 90 3d 8b 2a bc bc
       -0.022352962 0.00772705 0.07053928 -0.022969505
000180 7a 97 31 bd 10 9f 08 bd dc ed 3c 3b d2 f7 57 3c
       -0.04335735 -0.03335482 0.0028828299 0.013181644
000190 30 2b 26 bc cf a8 c1 3c cc 05 e4 3b e8 c0 ae bd
       -0.010142133 0.023640065 0.006958699 -0.08532888
0001a0 22 ee 3a bc 69 dd 42 bd 48 01 cc 3c 3c 05 a1 bb
       -0.011409314 -0.047574434 0.024902955 -0.004913954
0001b0 50 e7 41 3d 9e 77 99 3c fa f7 1d bd e6 89 db bc
       0.047339737 0.018733796 -0.038566567 -0.026799154
0001c0 29 86 e8 bb 1d 68 51 3d 84 e1 6e 3d a1 ed 13 3d
       -0.0070960713 0.05112468 0.058320537 0.036115292
0001d0 1c 7f c6 bc 76 7d 52 3d 89 f1 13 bd 17 76 dd bc
       -0.024230532 0.05138918 -0.036119018 -0.027033849
0001e0 a3 e8 e2 3b b4 85 d8 bc 30 95 ba bc 3a 40 57 bd
       0.006924705 -0.026430942 -0.022776216 -0.052551486
0001f0 a1 1c 4c 3c a9 34 1d bd 78 0a 42 3d 04 65 84 bd
       0.012457998 -0.0383803 0.047373265 -0.0646458

fc3.weight f4 [64, 128]
000000 ce ee ee bd 22 48 01 be cb 1c 59 3b f0 03 5a 3d
       -0.11666642 -0.12625173 0.0033128734 0.05322641
000010 b1 64 b1 3d ce 29 8c 3d f8 71 7b bd b3 a1 83 bd
       0.086617835 0.06843911 -0.061387986 -0.06427326
000020 c1 5d 80 3d 64 9a 2a 3d df a6 88 3a 20 88 2f 3d
       0.06267882 0.041651145 0.0010425708 0.04285443
000030 ab 62 4e bd d0 0b e9 3c dc c4 03 3d b8 88 80 3d
       -0.050387066 0.028448015 0.03217016 0.06276077
000040 2a 89 0b be d6 b6 a2 bd 51 9c 1c bd 27 15 e6 3d
       -0.13626543 -0.079450294 -0.038235012 0.11234503
000050 b4 c4 bd bd 50 d7 ff bc 88 7c e7 3d b0 3c 3f 3d
       -0.09266034 -0.031230599 0.11303049 0.046688735
000060 a2 f2 0b 3c 21 77 b9 bd 28 fe 67 bd 16 d8 f7 ba
       0.008541735 -0.09055925 -0.056638867 -0.0018909003
000070 3f ef 79 bd 28 1a 5e 3d 42 f3 ea bc 60 6b 80 3d
       -0.06101918 0.054224163 -0.028680447 0.0627048
000080 bf 52 09 3d fd 9c 50 3d f6 9f e5 3d 72 63 73 bd
       0.03352618 0.050930966 0.11212151 -0.05942101
000090 f8 aa 7e bd a6 30 2c bc 34 5d 04 3e 6c 6f 89 bd
       -0.062174767 -0.010509646 0.12926179 -0.06710705
0000a0 f8 1f e9 3c 04 fa c7 bd b2 e1 b1 3b c9 10 94 bd
       0.028457627 -0.097644836 0.0054285163 -0.07229764
0000b0 1d de 84 3d 3e bb c9 bc 03 d7 8d bc fb 68 20 3d
       0.06487677 -0.024625417 -0.01731444 0.039162617
0000c0 98 a3 e7 3d ba e5 69 bd 04 4d 56 3d e0 4f a5 3d
       0.113105 -0.05710385 0.05231954 0.080718756
0000d0 2b a1 ce 3d 8b 01 83 3d da d7 ce 3d 5a 3e ba bd
       0.10089334 0.06396779 0.10099764 -0.09093924
0000e0 34 a1 d3 bd d0 5f 71 bc 3d 39 d1 bd 5c ff d9 bc
       -0.103334814 -0.014732316 -0.102159955 -0.026611023
0000f0 7a e2 ae 3d ca 01 f3 bc b6 5d de bd 12 17 d8 3d
       0.08539291 -0.029663939 -0.10857718 0.10551275
000100 5c 71 37 bd 7c 3a 0f 3d a5 5f e4 3d 7a 52 0b be
       -0.044785842 0.034967884 0.11151055 -0.13605681
000110 f0 13 10 3d 00 22 17 3c 69 fe a7 3c 86 c5 e3 3d
       0.035175264 0.009224415 0.020507054 0.11121659
000120 f4 c0 03 be 39 b6 8a bd 9d fc ed 3c eb e0 0c 3d
       -0.12866575 -0.067730375 0.02905112 0.034394186
000130 54 2b 99 bd 28 4d 21 bd 62 5b 80 3d 5e 20 bf bd
       -0.07478967 -0.039380223 0.0626743 -0.093323454
000140 cf 6e 92 3d bc 6c 5a bd c2 9c 27 bd e2 41 fc bd
       0.07150041 -0.053326353 -0.04092098 -0.12317254
000150 00 cb 76 3b a8 1d 7d bd 51 c3 80 3d ea 14 b3 bd
       0.0037657619 -0.06179586 0.06287254 -0.087442234
000160 b2 b4 ce 3d 10 b5 13 bc 35 69 49 3c 08 91 14 bd
       0.10093059 -0.009015337 0.01229315 -0.036271125
000170 00 46 83 3a b7 96 d3 bd a7 74 4b 3c 78 6e 7c 3d
       0.0010015368 -0.10331481 0.012417949 0.06162879
000180 38 c1 66 bd 7e fc b5 3b 91 27 a7 3b b2 5f 8b 3d
       -0.05633661 0.005553781 0.005101152 0.06805362
000190 fe c6 af bd 58 01 e8 bb 02 35 7e bc ff a0 41 3c
       -0.085828766 -0.0070802383 -0.015515568 0.01181817
0001a0 ac a6 ed 3a 00 12 a1 3b 30 2c b0 bd a8 56 89 bd
       0.0018131337 0.004915476 -0.08602178 -0.067059815
0001b0 e6 60 22 bd 27 0f 67 bb 5d d2 76 bd f0 c9 9d 3d
       -0.03964319 -0.0035256834 -0.06025921 0.07704532
0001c0 e6 d5 f1 bd 10 d9 b7 bd 6c 7e 6e bd c3 58 cf bc
       -0.11808376 -0.08976948 -0.058226034 -0.02531088
0001d0 de 31 5c bd 09 86 b0 bd 80 db bd 3c 98 ac 09 bd
       -0.053758495 -0.08619315 0.023175955 -0.033611864
0001e0 7a 38 b6 3d 90 53 7c bd 4a 7f c1 3d 9c b7 cf bd
       0.08897491 -0.06160313 0.094481066 -0.101424426
0001f0 41 19 81 bd 0e d0 eb bd e8 22 89 3d 39 b2 e0 bd
       -0.06303645 -0.11514293 0.06696111 -0.10971493
000200 45 d6 f6 3d 41 10 df 3d 30 9e 39 bd be 8d bf bc
       0.120525874 0.10891772 -0.045316875 -0.023383018
000210 d0 7f 08 3e f2 5d b7 bd a3 c5 28 3d 5a 99 ce 3d
       0.13330007 -0.089534655 0.041204106 0.10087843
000220 69 04 27 3d 0a b8 8b bd 4d d2 da 3d 3e 0a 19 3e
       0.04077569 -0.06822212 0.10684643 0.14945313
000230 aa 23 27 3e 1d 23 ab bd 03 11 3d bd 92 ba 15 bd
       0.16322199 -0.08356307 -0.0461588 -0.03655488
000240 37 b7 91 3d 9d 61 ab 3d e0 1d 8a bd 47 18 41 bd
       0.071150236 0.08368228 -0.067439795 -0.047142293
000250 80 aa 8a bd e1 75 fb 3c 80 17 9c 3d f0 19 84 3c
       -0.067708015 0.030695857 0.0762167 0.01612565
000260 a8 d9 08 3e 1d 46 65 bd e6 5a 23 3e f6 2d dc bd
       0.1336428 -0.05597507 0.15952644 -0.10750954
000270 23 5f 3d bd c2 bd 0c 3d 22 17 74 3d 3b 1e eb bd
       -0.046233308 0.034360655 0.059592374 -0.114803754
000280 0b ec 3b 3c 6e 97 dc bd 3f 81 1a 3e 52 09 f5 bc
       0.011469851 -0.107710704 0.15088366 -0.02991167
000290 91 93 b1 3d d2 fb 01 3e 5f d6 e7 bb 64 55 04 3e
       0.08670724 0.12693718 -0.0070751156 0.12923199
0002a0 dc 1f 98 3d 21 d2 4d 3d 3d 2c 85 3d 47 ef 07 3e
       0.07427952 0.050249223 0.065025784 0.13274871
0002b0 7b af f4 bd d5 4a 18 bd 0d 73 ac 3d ae bc db 3d
       -0.11947533 -0.03718074 0.08420382 0.10729347
0002c0 ae 10 a3 3d 93 3e 63 bd 27 fc 1b 3d ee 6e 4a bb
       0.07962166 -0.055479597 0.038082268 -0.0030888873
0002d0 20 b5 12 3c 41 ae c4 3d 23 11 75 3d d3 e4 0c bd
       0.008954316 0.09603549 0.059830796 -0.03439791
0002e0 fe 67 19 bd 65 24 f7 3c 76 fa 52 bd a0 3c 5f 3c
       -0.03745269 0.030168721 -0.05150839 0.013625294
0002f0 9e d7 b9 3d 16 37 b6 3d d8 46 d1 3d e5 d8 2a 3e
       0.09074329 0.088972256 0.102185905 0.16684301
000300 40 37 43 bd 34 25 aa 3d 81 1c 94 bd 1d ad 77 3d
       -0.047660112 0.08307877 -0.07231999 0.060467828
000310 ef 07 b8 3c 6d 74 a2 bc 41 66 7b 3d 49 17 3a 3d
       0.02246472 -0.019830907 0.061376814 0.045432363
000320 45 1f 47 3d b9 e3 94 bd 1a 91 43 3c 9a 0e eb 3c
       0.048613805 -0.07269997 0.01193645 0.028693486
000330 9d c8 3d bd 23 bb d8 bd 24 7b aa bd 15 e1 19 bd
       -0.046333898 -0.105825685 -0.083242685 -0.03756817
000340 16 a9 bf 3d 8f 9a 37 bd 75 e4 e4 3d 3d 98 8f 3d
       0.093584225 -0.044825133 0.11176387 0.07011459
000350 ad c6 04 bd 0f 94 11 3c dc ec aa 3d 5b 71 63 bd
       -0.032416034 0.008885398 0.083459586 -0.055528026
000360 3b e4 3b 3d e3 bd c4 3d 46 96 c8 3c 83 af 82 bd
       0.045871954 0.096065305 0.024485718 -0.063811325
000370 4e 6b c8 bd 52 02 28 3e d1 fd 56 ba 0e f6 ab 3d
       -0.09786092 0.16407135 -0.0008201274 0.083965406
000380 bc aa 46 bd 92 53 83 3d a6 2a 2d bd 51 81 7d bc
       -0.04850267 0.06412424 -0.042277 -0.015472726
000390 b8 c7 86 3c 52 02 28 3e ed f7 48 3d 0d 6e 34 3c
       0.016452655 0.16407135 0.049064565 0.011012566
0003a0 19 d4 94 bb bd dc 8e 3c 09 0e 28 3d 81 b5 81 bd
       -0.0045418856 0.01743924 0.04102901 -0.06333447
0003b0 fe 72 10 3e b5 cf b4 3d 83 a0 e1 bd 8c 6f 62 bd
       0.14106366 0.088286795 -0.11016943 -0.05528216
0003c0 05 5b 5b bc 48 bc 25 3e 92 23 fd bd 2f 70 88 bc
       -0.0133884 0.16185105 -0.123603 -0.016655056
0003d0 2f 61 e7 bb f0 14 cb 3d b5 64 78 bd 93 9a fe bc
       -0.0070611457 0.09916103 -0.060642917 -0.031079566
0003e0 88 04 df bd 66 6e ab 3d 46 d7 9d bd 6e 13 ca 3d
       -0.10889536 0.08370666 -0.07707076 0.09866987
0003f0 c7 11 1b 3d 7e 95 a3 3b aa d8 01 3e d7 4b 66 3d
       0.03785875 0.004992186 0.12680307 0.05622467

fc3.bias f4 [64]
000000 ba bc b0 bc 69 06 fc 3d d9 44 e0 3c 7e 01 2e 3d
       -0.021574367 0.1230591 0.02737658 0.04248189
000010 e0 68 2f 3d 1e 3b 6e bd a3 71 e1 bd 37 13 ad 3d
       0.042824626 -0.058161847 -0.110080026 0.084509306
000020 6d d0 bd 3d a1 ed 13 3d 8e 01 4a 3c 77 c0 a3 bb
       0.0926827 0.036115292 0.012329472 -0.004997309
000030 06 77 c8 bd 03 b8 7d bd a7 c8 92 3c 4b de d8 bc
       -0.09788327 -0.061943065 0.017917944 -0.026473185
000040 54 c3 47 3d 7f e5 40 bd 10 1c 09 bd bf d0 90 3c
       0.048770264 -0.047093865 -0.033474028 0.017677663
000050 f3 84 ff bc 5d f9 da 3d e3 8b 81 bd 9d e4 aa 3d
       -0.031191325 0.106920935 -0.063255094 0.08344386
000060 c3 92 fe bc a6 2a 2d 3d 5f b8 a5 3c 76 e2 0f 3e
       -0.03107584 0.042277 0.020229517 0.14051232
000070 1d 02 1d bc 0d 1f 65 3c f9 bf 43 3d 6f 79 1a 3e
       -0.009583023 0.013984454 0.0477905 0.15085386
000080 fc 14 d9 bd 12 a0 d6 37 67 c7 54 3c 02 be fc bc
       -0.105997056 2.5585327e-05 0.012986994 -0.030852322
000090 a7 e1 dc bd 62 6e ce 3b 5f 1f b8 3c 32 ec 81 bd
       -0.10785227 0.0062997798 0.022475896 -0.06343879
0000a0 d7 27 25 3d 7c 96 aa bd a6 b2 24 3d 60 d4 92 bd
       0.040321197 -0.08329484 0.040209435 -0.071694136
0000b0 92 27 27 bd 03 d9 62 3d 9e 6c a2 bd 62 56 0b bd
       -0.04080922 0.05538274 -0.07930873 -0.034017928
0000c0 2d 1d 48 bd 4d f3 3f 3d 9a 12 95 bc 35 03 3e 3d
       -0.04885595 0.04686289 -0.018197346 0.046389777
0000d0 58 ab cb 3d d5 4c 6d 3d b1 97 93 bd a5 1d 94 3d
       0.099447906 0.0579346 -0.07206667 0.07232217
0000e0 96 f2 36 3d 55 28 85 bd a6 ad ac bd 20 0b af bd
       0.04466494 -0.06501833 -0.08431558 -0.08547044
0000f0 9c 2f d0 3c 93 8d b2 b9 bf ca 11 3d e4 01 64 3d
       0.025413327 -0.00034056287 0.035593744 0.055665866

fc4.weight f4 [1, 64]
000000 d2 b8 30 bc fe db 77 bd 41 80 93 3b f4 4a 50 bc
       -0.010786252 -0.060512535 0.004501373 -0.012713183
000010 b8 d3 25 bc 17 dd 6f bc 89 f7 12 bc 85 20 05 bd
       -0.010121278 -0.014640114 -0.00897015 -0.032501716
000020 8c 42 ff bd 3d d8 bd bd e8 cd 7a bc 71 67 1d bc
       -0.12463865 -0.0926976 -0.015307881 -0.009607182
000030 85 1c 5b bc fc 68 a0 3b 2c fa 0d bc dd 37 5b bc
       -0.013373499 0.0048953276 -0.008665603 -0.013380018
000040 77 dc 10 bc b9 f6 5f bc 1f a5 23 bc 66 1e 78 bd
       -0.008841625 -0.013669663 -0.009988098 -0.060575865
000050 9b 57 3b bd 50 2c e8 bc e3 ab 31 3a be 55 e5 bd
       -0.045737844 -0.028341442 0.0006777627 -0.11197995
000060 9e 5b 2c bc a1 6c e9 bb 6b ed b1 3b 42 13 02 be
       -0.01051989 -0.0071235453 0.0054299138 -0.12702659
000070 2b 8f 38 bb 64 0c 34 bc a8 74 4b bc 77 e7 87 bd
       -0.0028161507 -0.010989282 -0.01241795 -0.06635945
000080 54 c9 c6 bb 96 6a 3f bd ba e5 69 bc fb d5 31 bc
       -0.0060664807 -0.046732508 -0.0142759625 -0.01085424
000090 f9 96 8a bc 00 c8 25 bc 50 dc 4a bc 34 e0 03 bc
       -0.016917692 -0.0101184845 -0.012381628 -0.00804906
0000a0 20 61 4b bc df fe 79 bc 18 9d 41 bc a8 1e 2f bc
       -0.012413293 -0.01525852 -0.011817239 -0.010688461
0000b0 ff 50 a4 bc 59 6d 72 bc 25 ad 05 bc 4d ba 97 bb
       -0.020058153 -0.014796578 -0.008158957 -0.004630363
0000c0 7e 7f 35 bc 34 5f d9 3b b6 9c d2 bb 69 87 26 bd
       -0.01107776 0.0066336636 -0.006427373 -0.04065648
0000d0 c3 ec 44 bd e3 74 74 bd 7a b3 1e bc b1 89 24 bb
       -0.048077356 -0.059681784 -0.009686345 -0.0025106485
0000e0 2e 60 19 bc 3f f3 23 bc 28 b3 4b bc 9f 0c 5d 3b
       -0.00936131 -0.010006725 -0.012432851 0.0033729447
0000f0 71 bd b9 bd f2 cc 81 bc cd 03 0f bb d7 bb 1a bc
       -0.09069336 -0.015844796 -0.0021822334 -0.009444199
