continuous_action_space/Models/100_actor.pt (torch, 173263 bytes, 7 tensors)

fc1.weight f4 [256, 5]
-0.03449729 0.026365766 0.018906584 0.004002741 0.079378 -0.06555231 0.0430099 0.06624592
0.008178812 0.06455885 -0.004541357 -0.053482838 -0.15227656 0.016584259 0.08546535 0.033093236
0.07848498 0.04122106 0.0111195175 -0.0050792345 -0.068014346 -0.05435525 -0.06975453 -0.05428385
0.035097815 0.012173951 -0.026560731 -0.061134666 0.03385655 -0.03546336 -0.010434233 -0.05240512
-0.035259888 0.026072713 -0.058232933 -0.042417474 0.08222736 -0.0021450869 0.00935824 0.002488444
0.026716195 -0.0409981 0.0062665865 0.025525168 -0.0045370758 0.01130128 -0.04767797 0.028256215
0.023358092 -0.007839509 -0.08002644 0.054615635 0.056198362 0.018685224 0.0487905 -0.0015952523
0.0071884175 0.018497897 0.09440362 0.012606744 -0.04975748 -0.0045580193 0.031093292 -0.020401478
-0.03273022 0.07119075 0.0554033 0.010640065 0.025533564 0.017689615 0.014510348 0.0022212192
-0.037820935 0.011579749 0.0016346723 -0.017837837 -0.046071284 -0.0062397756 -0.07279651 0.040943995
0.021953616 0.028571248 -0.017463958 0.035222504 0.0035904164 -0.08202147 -0.036696848 0.053644437
0.05424958 0.054432638 0.0341335 0.060291864 0.06659934 0.07762667 0.0062160017 -0.007945128
0.044565402 -2.2508204e-05 -0.040667906 -0.04846243 0.0005821628 0.06685378 0.05271949 0.025481641
0.06689862 -0.09312482 -0.0375577 -0.08576058 0.057827894 0.021028478 -0.0652295 0.03122743
-0.030691402 -0.03000572 0.047383524 -0.015494042 -0.026021898 -0.035486497 0.048040975 0.067116916
-0.04012511 -0.00248941 0.05346583 0.039804235 -0.020877762 -0.026137546 0.041128755 0.061388075
0.0073693963 0.009445537 -0.06146176 0.07586373 0.05119415 0.027758932 0.050239228 0.0217598
-0.036881074 -0.00054499507 0.016666278 -0.014107138 0.059934087 -0.024102278 -0.05581685 -0.029754758
-0.05800538 -0.3242131 -0.17017046 -0.49599427 -0.14886944 0.3076241 -0.05796041 0.05533325
-0.03409538 0.05294506 0.062188517 -0.02774434 0.036633562 -0.035783004 0.05761985 0.08300594
-0.018602775 0.06382944 -0.07476418 1.1375797e-05 0.035625152 -0.054324746 0.030414594 -0.023819655
-0.022605158 -0.049588397 -0.0024231626 -0.035210595 -0.014330475 0.038031794 0.0690911 -0.015129755
-0.0059813 -0.020304564 0.05241439 0.03379956 0.049645577 0.021969384 0.04947138 -0.05193018
0.064066775 -0.05063333 -0.038878854 -0.021775605 -0.03386839 0.034509238 0.03262436 -0.010053619
0.037309755 -0.022942634 0.018793305 0.052366525 0.07262345 0.08071859 0.06431485 0.011722969
0.0503105 0.007938832 0.08606847 0.06534937 -0.009487072 0.070316195 0.03124632 0.0261089
0.015068128 0.017705498 0.0031281486 -0.030511849 -0.05813793 -0.032194123 -0.012437329 0.04719653
0.045978457 -0.03744702 -0.002399832 -0.018038526 -0.03343553 -0.010990463 -0.021686126 0.03493441
-0.030996129 0.0046268976 0.00044015507 0.012374867 0.08491412 0.0074222703 0.029922439 0.094621524
0.05460935 0.003115749 0.0011333296 -0.046981078 -0.015390018 0.010721221 -0.00971309 0.070887156
-0.059383757 -0.0050823805 0.028415 0.06437769 0.078277834 0.010003619 0.0026344433 -0.028002437
0.035313673 -0.03622807 -0.008350859 -0.04381171 -0.05166742 0.043361098 -0.004176169 0.08351727
00000000: 084d 0dbd 05fd d73c fbe1 9a3c 6d29 833b
00000010: ef90 a23d 4a40 86bd 262b 303d f1ab 873d
00000020: 6d00 063c 6e37 843d aacf 94bb d210 5bbd
00000030: 63ee 1bbe b6db 873c 7508 af3d c68c 073d
00000040: bcbc a03d 6ad7 283d a32e 363c b56f a6bb
00000050: 1b4b 8bbd 9ca3 5ebd 77db 8ebd be58 5ebd
00000060: bac2 0f3d 4075 473c e495 d9bc 5868 7abd
00000070: 2aad 0a3d 0742 11bd 58f4 2abc c0a6 56bd
00000080: ac6c 10bd 7196 d53c a885 6ebd f2bd 2dbd
00000090: d166 a83d 9694 0cbb 4e53 193c 2a15 233b
000000a0: ecdb da3c a0ed 27bd f057 cd3b 281a d13c
000000b0: c0ab 94bb 0129 393c fa49 43bd 9479 e73c
000000c0: 7859 bf3c 4971 00bc e7e4 a3bd a5b4 5f3d
000000d0: 4130 663d c111 993c 8cd8 473d c917 d1ba
000000e0: d18c eb3b e788 973c af56 c13d 848c 4e3c
000000f0: 80ce 4bbd 705b 95bb 5cb7 fe3c 0021 a7bc
00000100: 2010 06bd 75cc 913d 92ee 623d ab53 2e3c
00000110: c42b d13c d0e9 903c d0bc 6d3c e091 113b
00000120: 20ea 1abd fdb8 3d3c 8042 d63a a820 92bc
00000130: 3eb5 3cbd 0877 ccbb 5616 95bd e4b4 273d
00000140: 12d8 b33c 400e ea3c 9310 8fbc 7945 103d
00000150: 314d 6b3b dffa a7bd 6f4f 16bd 45ba 5b3d
00000160: cf34 5e3d c2f4 5e3d 92cf 0b3d 9af4 763d
00000170: 3c65 883d bbfa 9e3d 9aaf cb3b 482c 02bc
00000180: 368a 363d 00d0 bcb7 6493 26bd 8a80 46bd
00000190: 499c 183a a2ea 883d 64f0 573d e0be d03c
000001a0: 2502 893d 3ab8 bebd 1ad6 19bd 3ea3 afbd
000001b0: f1dc 6c3d ea43 ac3c 0b97 85bd abd0 ff3c
000001c0: 896c fbbc 8ece f5bc 3a15 423d b9da 7dbc
000001d0: e02b d5bc 4a5a 11bd 9dc6 443d 9874 893d
000001e0: 3a5a 24bd 5f25 23bb fcfe 5a3d c409 233d
000001f0: d707 abbc 681e d6bc a076 283d 1072 7b3d
00000200: fa7a f13b 74c1 1a3c 54bf 7bbd 715e 9b3d
00000210: f5b0 513d b366 e33c a6c7 4d3d 9c41 b23c
00000220: 9c10 17bd 00de 0eba b887 883c a021 67bc
00000230: 727d 753d 2472 c5bc 36a0 64bd 40c0 f3bc
00000240: 0d97 6dbd 42ff a5be 2a41 2ebe f6f2 fdbe
00000250: 3b71 18be e880 9d3e e567 6dbd 1ea5 623d
00000260: 99a7 0bbd ebdc 583d 63b9 7e3d 1948 e3bc
00000270: 130d 163d 3391 12bd cb02 6c3d 05ff a93d
00000280: d964 98bc 02b9 823d f61d 99bd adda 3e37
00000290: aeeb 113d a083 5ebd 0728 f93c 7021 c3bc
000002a0: 742e b9bc 341d 4bbd eccd 1ebb fc38 10bd
000002b0: 5eca 6abc 3ac7 1b3d a27f 8d3d cbe2 77bc
000002c0: c8fe c3bb c255 a6bc 79b0 563d 6871 0a3d
000002d0: 2959 4b3d 23f9 b33c 80a2 4a3d beb4 54bd
000002e0: 7135 833d e564 4fbd 6f3f 1fbd c162 b2bc
000002f0: 95b9 0abd 8f59 0d3d 1fa1 053d efb7 24bc
00000300: 1dd2 183d 31f2 bbbc 6bf4 993c 487e 563d
00000310: 9abb 943d ca4f a53d 81b7 833d b211 403c
00000320: 6212 4e3d e011 023c aa44 b03d e4d5 853d
00000330: aa6f 1bbc f001 903d 48f8 ff3c 55e2 d53c
00000340: 4fe0 763c 1f0b 913c a001 4d3b fcf3 f9bc
00000350: 0a22 6ebd fcdd 03bd f0c5 4bbc 2651 413d
00000360: e853 3c3d 0c62 19bd 8046 1dbb 88c5 93bc
00000370: b2f3 08bd 5811 34bc 1aa7 b1bc 6217 0f3d
00000380: 98eb fdbc 3b9d 973b 9dc4 e639 f4bf 4a3c
00000390: 74e7 ad3d 8436 f33b e71f f53c eec8 c13d
000003a0: 0eae 5f3d 9831 4c3b 3b8c 943a 3b6f 40bd
000003b0: 6a26 7cbc 0fa8 2f3c a723 1fbc 492d 913d
000003c0: 623c 73bd 198a a6bb 93c6 e83c 73d8 833d
000003d0: 2150 a03d 38e6 233c a0a6 2c3b 5e65 e5bc
000003e0: 12a5 103d e263 14bd 0bd2 08bc e873 33bd
000003f0: 37a1 53bd 689b 313d 3fd8 88bb 1a0b ab3d

fc1.bias f4 [256]
-0.3122573 -0.030913033 0.13235956 0.097922616 0.258165 -0.17794932 -0.1348503 0.4064622
-0.12002513 -0.31065306 0.33322155 0.32873443 -0.14023139 -0.064178154 -0.32999048 -0.35122016
0.1985236 -0.167771 0.39256984 -0.35809442 -0.031412464 0.0405533 0.26527098 0.39047533
0.34813005 0.18010539 -0.17669336 -0.31937656 -0.40008643 0.099454805 0.45876122 -0.058084562
0.012839907 -0.32498744 0.16647574 0.31697905 -0.42665836 -0.29275048 0.35413846 0.1394906
0.025724085 0.11985199 -0.06799521 -0.31258664 -0.41788974 0.33894178 -0.014501609 -0.14418046
-0.09088938 -0.2439206 -0.1408863 -0.34873074 0.3653615 0.2084739 -0.22553943 -0.12766917
0.23734884 -0.1656062 0.16320737 0.16466619 -0.24927877 0.16566475 0.05910002 0.41789845
-0.13402596 -0.08019915 0.40957293 -0.36519566 0.062303983 0.47465497 -0.21409483 0.47247326
0.42556217 0.46400347 -0.048570916 0.43230274 -0.17171569 -0.1336579 0.2090382 0.117545225
0.28907323 0.4535933 -0.25898394 0.2785107 0.17836046 0.27310106 0.25668502 -0.16729005
-0.35345796 0.39269277 -0.2550171 0.31508297 -0.40453935 -0.053337995 0.05157543 0.098626055
0.1254795 0.1682564 -0.013100993 0.09470615 0.4788928 -0.2875178 -0.024416422 -0.17071174
0.4193886 0.41417128 0.018056598 -0.117161475 -0.27631813 0.34919956 -0.030796751 0.46176434
0.29561728 0.41746265 0.3786606 -0.2544125 0.16429505 -0.18858656 0.25549504 -0.021703606
0.08924726 -0.30929685 -0.38794374 0.2130362 0.10949196 0.111848086 0.34954855 -0.16480833
0.18414862 -0.22813675 0.13864926 -0.07706548 0.31262237 0.41276067 0.4184205 0.04062986
0.2776589 -0.44682825 -0.26233292 0.10737874 0.043689385 -0.32940033 -0.19794214 -0.18674588
-0.44308227 0.076261036 0.33609992 0.21255307 -0.1967778 -0.41066068 -0.37884355 0.0357804
0.34175998 -0.18110923 -0.22154237 -0.23856898 -0.038714703 -0.42470348 -0.3745204 0.466732
-0.22709125 -0.054670215 -0.124974184 -0.3928799 -0.06326767 0.1631708 -0.15066305 0.008445227
0.023496332 -0.44520774 0.35884392 0.40740842 0.33612922 -0.1251896 0.2833435 -0.41900444
-0.08414117 -0.09095621 -0.13405316 0.21966428 -0.18278247 -0.026168501 -0.10617496 -0.41997066
-0.046535186 -0.38993126 0.28543255 0.28043857 0.46382642 -0.15017557 0.093384765 0.11557271
0.47475 0.4536806 -0.19834416 -0.38053587 -0.40306836 -0.21536182 0.40787905 0.19596489
0.47599918 0.38447306 0.039724912 -0.2536504 0.4680714 0.3892166 0.22414088 -0.22681879
0.38796538 0.06994586 0.32605407 0.20602444 0.22986051 -0.3924192 -0.2479715 0.31858283
-0.10323478 -0.38906676 0.448422 0.017640682 0.40046486 -0.34466398 0.18441097 -0.14421777
-0.15385287 -0.06859319 -0.14211519 0.27743235 -0.0489925 0.36962497 0.13156499 -0.03883988
-0.23548171 -0.4095041 -0.11611637 -0.4141339 -0.08285556 0.050178718 -0.028820155 -0.21967888
0.3338392 0.28771576 -0.081070356 -0.15180714 0.30983686 0.41333762 -0.42308345 -0.07639621
-0.0055334684 -0.1667276 0.41212523 -0.04005466 0.40866327 0.034035467 -0.02449096 -0.26086044
00000000: 30e0 9fbe 543d fdbc 4489 073e a78b c83d
00000010: 342e 843e 5938 36be 3216 0abe d01b d03e
00000020: bccf f5bd eb0d 9fbe 049c aa3e e14f a83e
00000030: d198 0fbe d66f 83bd 83f4 a8be 21d3 b3be
00000040: c549 4b3e 29cc 2bbe eafe c83e 2758 b7be
00000050: 5baa 00bd 381b 263d 99d1 873e 62ec c73e
00000060: 1a3e b23e 8c6d 383e 1bef 34be 5385 a3be
00000070: 21d8 ccbe f6ae cb3d c0e2 ea3e 14ea 6dbd
00000080: 795e 523c c164 a6be 9e78 2a3e 144b a23e
00000090: f772 dabe 64e3 95be a351 b53e a0d6 0e3e
000000a0: 51bb d23c f674 f53d 1341 8bbd 5b0b a0be
000000b0: a5f5 d5be c789 ad3e 2898 6dbc 0ba4 13be
000000c0: 3624 babd 52c6 79be 8044 10be d68c b2be
000000d0: aa10 bb3e 2f7a 553e cff3 66be b5bb 02be
000000e0: 930b 733e ac94 29be d51f 273e 419e 283e
000000f0: ef42 7fbe 05a4 293e dd12 723d c9f6 d53e
00000100: 1a3e 09be 743f a4bd 8bb3 d13e edfa babe
00000110: 7632 7f3d fa05 f33e ad3b 5bbe 04e8 f13e
00000120: 49e3 d93e dd91 ed3e 4cf2 46bd c956 dd3e
00000130: 3dd6 2fbe 9edd 08be 1c0e 563e 8dbb f03d
00000140: 6801 943e 623d e83e 8b99 84be f498 8e3e
00000150: 20a4 363e e7d3 8b3e 386c 833e 154e 2bbe
00000160: 71f8 b4be 070f c93e 9a91 82be 8e52 a13e
00000170: c81f cfbe f178 5abd c240 533d 75fc c93d
00000180: b37d 003e 684b 2c3e 8ca5 56bc 4cf5 c13d
00000190: 7031 f53e 8835 93be f304 c8bc 0fcf 2ebe
000001a0: 1aba d63e 420e d43e 6eeb 933c 5bf2 efbd
000001b0: 9279 8dbe 49ca b23e 7849 fcbc 606c ec3e
000001c0: 265b 973e aabd d53e cddf c13e 5b42 82be
000001d0: f63c 283e d61c 41be 3fd0 823e c3cb b1bc
000001e0: 44c7 b63d 285c 9ebe 90a0 c6be 2926 5a3e
000001f0: 523d e03d 9c10 e53d 07f8 b23e 84c3 28be
00000200: 7591 3c3e ae9c 69be 12fa 0d3e 82d4 9dbd
00000210: 0a10 a03e 5e55 d33e 363b d63e 7f6b 263d
00000220: 4f29 8e3e acc6 e4be 8050 86be 63e9 db3d
00000230: a4f3 323d 29a7 a8be 58b1 4abe 503a 3fbe
00000240: aedb e2be bf2e 9c3d 4a15 ac3e 83a7 593e
00000250: 1f80 49be 1e42 d2be c8f7 c1be 788e 123d
00000260: 2afb ae3e b374 39be 01dc 62be 6d4b 74be
00000270: 4f93 1ebd bc72 d9be 23c1 bfbe 7ff7 ee3e
00000280: 9c8a 68be e0ed 5fbd 77f2 ffbd 8e27 c9be
00000290: 7b92 81bd 3f16 273e 6a47 1abe d95d 0a3c
000002a0: 617b c03c 45f2 e3be 64ba b73e d697 d03e
000002b0: 2119 ac3e b431 00be 6612 913e c087 d6be
000002c0: 3552 acbd 4047 babd 3b45 09be acef 603e
000002d0: 542b 3bbe 535f d6bc 4272 d9bd 6506 d7be
000002e0: ae9b 3ebd 12a5 c7be 3724 923e a595 8f3e
000002f0: a87a ed3e a0c7 19be 8340 bf3d 63b1 ec3d
00000300: 6f12 f33e d348 e83e bb1a 4bbe 99d5 c2be
00000310: fa5e cebe cf87 5cbe 86d5 d03e 05ab 483e
00000320: 2ab6 f33e a7d9 c43e 97b6 223d 77de 81be
00000330: 0ea7 ef3e 6647 c73e 3085 653e 2f43 68be
00000340: 66a3 c63e c63f 8f3d 8ff0 a63e 12f8 523e
00000350: 8e60 6b3e 2beb c8be 3eec 7dbe 4a1d a33e
00000360: c26c d3bd c233 c7be 9297 e53e 3183 903c
00000370: bb09 cd3e cc77 b0be 3bd6 3c3e d3ad 13be
00000380: 9b8b 1dbe 967a 8cbd a586 11be 9d0b 8e3e
00000390: 5cac 48bd 7c3f bd3e f9b8 063e 9116 1fbd
000003a0: 1e22 71be 85aa d1be 6bce edbd 5c09 d4be
000003b0: 2db0 a9bd 3388 4d3d 3f18 ecbc 80f3 60be
000003c0: f9ec aa3e 7b4f 933e 3708 a6bd 5573 1bbe
000003d0: f0a2 9e3e fda0 d33e 659e d8be 9e75 9cbd
000003e0: 1952 b5bb a4ba 2abe 1402 d33e 5b10 24bd
000003f0: 503c d13e c668 0b3d 44a1 c8bc 808f 85be

fc2.weight f4 [128, 256]
-0.0346008 0.025102053 0.096087806 0.104268186 0.009850565 0.060318816 -0.042294458 -0.043898262
-0.04481548 -0.0068023535 0.094556 0.006871217 0.018575959 -0.008258374 -0.041323315 0.029771436
0.10056992 -0.011189167 0.11593686 0.011412355 0.01877613 0.02383025 0.024658555 0.04424715
-0.0140955215 0.05266815 0.047597997 -0.03690906 0.028839719 0.07382464 0.08353312 0.07575521
0.085467555 0.049484424 -0.062308613 0.05423475 0.08917254 0.08144891 0.02923055 0.0022236444
-0.016448068 0.10798642 -0.009586996 -0.026117748 0.04967434 0.0061376584 0.046318334 -0.05856869
-0.020842304 -0.06926669 -0.01779775 0.081382245 0.0497506 -0.05115204 -0.05510574 -0.041919652
0.02814403 0.08096041 0.08486227 0.090804964 0.015186153 0.0032000516 0.053032134 0.03590338
0.07475735 -0.057181686 0.08026186 -0.08442386 0.09310206 -0.03811488 -0.06652346 0.10982924
0.0060145687 -0.014022089 0.023919305 0.022043636 -0.009016106 -0.046119764 -0.015827078 0.111501805
0.0034152386 0.045256604 -0.044568393 0.0066675553 0.087012544 -0.0011262007 0.10131391 0.0032841666
-0.079332255 -0.047708847 -0.08778015 0.026028892 -0.0073663434 0.09739728 0.06595857 0.08103492
0.04126924 -0.04172592 0.08034076 -0.023315877 0.0432622 -0.04625463 -0.0064350334 -0.03050434
0.022565903 0.024237301 0.023807276 0.014938966 -0.07334819 0.044283316 -0.084235 -0.021115564
0.05770576 0.0988852 -0.045919575 0.017217217 0.0187754 0.030861573 0.04989464 -0.04689291
-0.05244958 -0.0308933 -0.06615046 -0.004443942 -0.010646703 0.062278047 0.1126975 -0.045134477
-0.009620116 -0.002008602 -0.022379057 -0.054079447 0.017060513 -0.031561814 0.0007208866 -0.018789148
-0.056715637 0.04928685 0.016583288 -0.003444063 0.015515809 0.093078434 -0.07019795 -0.006536457
-0.008177342 0.041962676 -0.036038544 -0.022718262 0.094585896 -0.06433287 -0.0028982165 0.07351212
-0.033215787 0.0216694 0.10853019 -0.0043750852 -0.04203423 -0.02924299 0.06836723 0.08798808
0.0020124882 -0.03764153 0.06360741 -0.032013997 0.0284476 0.08537885 0.01632552 0.10316483
-0.0507281 -0.087497175 0.07914518 0.11276548 -0.0050553684 0.06858508 0.016413502 -0.020210234
-0.03753863 -0.0020484738 0.080085136 0.054498635 0.08993285 0.090339474 0.0977913 0.017444106
-0.0047045625 -0.055942953 0.086520694 -0.036705356 -0.013091429 0.056821525 0.06630554 0.03361262
0.05343353 0.1040417 0.058598045 0.023410592 0.03586389 -0.043200888 -0.0037265455 0.11916259
0.02456231 0.009928614 0.016088914 0.10070068 0.06587862 0.046390906 -0.012198388 0.036499586
0.10636077 0.014570396 -0.013522927 0.101865694 0.044394482 -0.008268706 -0.045661304 -0.021127984
0.07397638 0.035174884 0.06794514 0.10357987 0.049770277 0.09314622 0.08358298 0.09904185
-0.015264564 0.091041535 0.089750774 0.0023114309 0.021459602 0.0993709 0.022185143 0.072064884
-0.031626012 -0.0031505886 -0.006886854 0.08744597 0.030175162 0.019212585 -0.047838934 0.028695628
0.062108632 -0.011052611 0.048591793 0.10046656 0.034297254 -0.003351466 0.040088635 -0.001590667
0.011221623 0.020976577 0.070447095 0.04885662 0.08055645 -0.016970476 -0.056545816 -0.04472455
00000000: 92b9 0dbd d2a2 cd3c afc9 c43d 8f8a d53d
00000010: 4464 213c dd10 773d f43c 2dbd aace 33bd
00000020: 7090 37bd 47e6 debb 93a6 c13d f227 e13b
00000030: 9c2c 983c 224e 07bc a342 29bd 3ae3 f33c
00000040: 9af7 cd3d c552 37bc 4e70 ed3d e3fa 3a3c
00000050: 66d0 993c a837 c33c bd00 ca3c 803c 353d
00000060: e7f0 66bc 8fba 573d 1ef6 423d f42d 17bd
00000070: 4641 ec3c 5f31 973d 6a13 ab3d 8c25 9b3d
00000080: 9d09 af3d 2eb0 4a3d 5137 7fbd 4225 5e3d
00000090: 18a0 b63d b0ce a63d e874 ef3c 90ba 113b
000000a0: 19be 86bc fc27 dd3d c712 1dbc e3f4 d5bc
000000b0: 5277 4b3d 691e c93b 4bb8 3d3d b9e5 6fbd
000000c0: 7bbd aabc b2db 8dbd 96cc 91bc bcab a63d
000000d0: 49c7 4b3d cd84 51bd 8eb6 61bd f1b3 2bbd
000000e0: 4f8e e63c 92ce a53d 45cc ad3d f4f7 b93d
000000f0: 58cf 783c f5b7 513b 3938 593d 6c0f 133d
00000100: 621a 993d 5837 6abd 5460 a43d 6be6 acbd
00000110: 4bac be3d 591e 1cbd 743d 88bd 27ee e03d
00000120: dc15 c53b e7bc 65bc 6bf2 c33c db94 b43c
00000130: 4ab8 13bc 14e8 3cbd caa7 81bc 0f5b e43d
00000140: 32d2 5f3b fd5e 393d 598d 36bd 827b da3b
00000150: a233 b23d 069d 93ba ab7d cf3d 2c3b 573b
00000160: f378 a2bd 5a6a 43bd 14c6 b3bd 8b3a d53c
00000170: 5e61 f1bb 3a78 c73d 4915 873d a3f5 a53d
00000180: ef09 293d cce8 2abd b289 a43d f000 bfbc
00000190: b433 313d 7f75 3dbd f9dc d2bb 3de4 f9bc
000001a0: 21dc b83c 4e8d c63c 7a07 c33c 91c2 743c
000001b0: 9337 96bd 6c62 353d 6683 acbd 8cfa acbc
000001c0: e05c 6c3d 5384 ca3d 2a16 3cbd 1f0b 8d3c
000001d0: dece 993c 69d1 fc3c 525e 4c3d c812 40bd
000001e0: 5fd5 56bd f213 fdbc e479 87bd 7d9e 91bb
000001f0: 826f 2ebc 4417 7f3d f2cd e63d eede 38bd
00000200: b19d 1dbc c0a2 03bb 4954 b7bc 6982 5dbd
00000210: 7dc2 8b3c f646 01bd e1f9 3c3a b3eb 99bc
00000220: a84e 68bd 02e1 493d add9 873c cab5 61bb
00000230: 0536 7e3c e89f be3d f1c3 8fbd c72f d6bb
00000240: 42fa 05bc 0ee1 2b3d 279d 13bd a61b babc
00000250: 40b6 c13d f4c0 83bd 01f0 3dbb 868d 963d
00000260: 470d 08bd 0784 b13c 1445 de3d e05c 8fbb
00000270: 162c 2cbd ff8e efbc 1e04 8c3d 1833 b43d
00000280: f3e3 033b 012e 1abd 9a44 823d 1c21 03bd
00000290: f10a e93c 1bdb ae3d 19bd 853c 1548 d33d
000002a0: 45c8 4fbd b831 b3bd de16 a23d 97f1 e63d
000002b0: 81a7 a5bb 5676 8c3d 9c75 863c ef8f a5bc
000002c0: 1bc2 19bd b03f 06bb ad03 a43d f639 5f3d
000002d0: b72e b83d e703 b93d ce46 c83d f1e6 8e3c
000002e0: bb28 9abb 7024 65bd c331 b13d 5b58 16bd
000002f0: 6f7d 56bc b0bd 683d 33cb 873d 63ad 093d
00000300: 1edd 5a3d d113 d53d 8104 703d 92c7 bf3c
00000310: 04e6 123d 6af3 30bd 0f39 74bb 840b f43d
00000320: e636 c93c a0ab 223c e6cc 833c 283c ce3d
00000330: 5feb 863d 6404 3e3d bfdb 47bc 9780 153d
00000340: add3 d93d acb8 6e3c 448f 5dbc f69e d03d
00000350: fdd6 353d 7779 07bc 5907 3bbd 9814 adbc
00000360: ee80 973d 8a13 103d d226 8b3d af21 d43d
00000370: ebdb 4b3d 72c3 be3d 8e2d ab3d 74d6 ca3d
00000380: 3918 7abc fc73 ba3d 41cf b73d 607b 173b
00000390: 0ccc af3c f882 cb3d 9ebd b53c c196 933d
000003a0: 478a 01bd 1b7a 4ebb 1eab e1bb df16 b33d
000003b0: e731 f73c b663 9d3c c2f2 43bd 1813 eb3c
000003c0: 9f65 7e3d 0316 35bc 3008 473d 69c1 cd3d
000003d0: 477b 0c3d 45a4 5bbb fb33 243d ed7d d0ba
000003e0: e6da 373c 12d7 ab3c 9146 903d e11d 483d
000003f0: c8fa a43d ab05 8bbc 969c 67bd 1731 37bd

fc2.bias f4 [128]
0.049537778 0.026357807 -0.0035787509 0.08159061 0.043368172 -0.056223173 0.056629654 0.028173152
-0.049073845 0.036454298 -0.0073452927 0.022255305 0.017370822 -0.056579817 0.08498122 0.030042315
-0.009292095 -0.06101918 -0.022191886 0.0560968 0.038804214 -0.011894919 0.054377068 0.022896511
0.030949859 0.0072745257 -0.013859671 0.018368462 -0.006199152 0.055597514 -0.011430008 0.08383696
0.06864874 0.032290228 0.04252713 -0.0061551984 0.07432607 -0.059010066 0.063984275 -0.013055201
-0.021330886 0.015023408 -0.06681866 0.0691301 -0.053357575 -0.028736597 0.045006227 -0.06914554
-0.043099873 0.031784255 0.076725386 0.06486353 -0.01645457 0.027031166 0.083469 0.07275643
-0.029049575 0.051454067 -0.06578643 -0.018861173 0.05825847 -0.03169399 0.036954056 0.059106234
0.08636131 0.0776212 0.032612473 -0.023817554 -0.00719201 0.015936648 -0.03436024 0.0034126497
-0.006853603 0.013481795 0.019594938 0.04652564 -0.008578154 0.0143156005 0.0040076817 0.05697377
-0.054457616 -0.026153125 0.018365731 -0.043191347 -0.05568822 -0.040590424 -0.03225092 0.0001333006
-0.009254836 0.057141062 -0.0076323505 0.026125193 0.068029046 0.0318195 0.053133793 -0.01734043
-0.024678363 0.05353418 -0.043956436 0.017551824 0.043778114 0.009878511 0.027758734 0.003441575
0.036472984 0.0494961 -0.058273606 -0.044476096 0.001651518 0.005244589 -0.026630554 0.008519873
0.001855626 -0.01902534 -0.059694666 0.059348665 -0.03302539 -0.052097287 0.0453035 0.08933845
0.03531235 0.010402278 -0.057288066 -0.026535489 0.017219707 0.011556222 -0.0066685346 -0.017377328
00000000: 20e8 4a3d 54ec d73c 7a89 6abb fa18 a73d
00000010: d3a2 313d 454a 66bd 7ff4 673d 62cb e63c
00000020: a801 49bd 1a51 153d c8b0 f0bb c250 b63c
00000030: 414d 8e3c 3dc0 67bd a20a ae3d 4d1b f63c
00000040: df3d 18bc 3fef 79bd c2cb b5bc c2c5 653d
00000050: 2bf1 1e3d e8e2 42bc 7dba 5e3d 7791 bb3c
00000060: 8f8a fd3c 255f ee3b ac13 63bc 7579 963c
00000070: 4222 cbbb 38ba 633d ee44 3bbc b6b2 ab3d
00000080: b697 8c3d c242 043d ee30 2e3d 8cb1 c9bb
00000090: 4438 983d 8ab4 71bd 300a 833d 7be5 55bc
000000a0: 1cbe aebc be24 763c 39d8 88bd 1594 8d3d
000000b0: 798d 5abd 0369 ebbc 7358 383d 2d9c 8dbd
000000c0: 7e89 30bd 3530 023d 3322 9d3d 2cd7 843d
000000d0: bccb 86bc 7770 dd3c ccf1 aa3d 5301 953d
000000e0: 60f9 edbc 80c1 523d 09bb 86bd bf82 9abc
000000f0: 6fa0 6e3d 8fd1 01bd 235d 173d 6119 723d
00000100: 33de b03d ddf7 9e3d a894 053d 081d c3bc
00000110: f4aa ebbb 938d 823c 53bd 0cbd c3a6 5f3b
00000120: 3094 e0bb bfe2 5c3c 9085 a03c ab91 3e3d
00000130: 638b 0cbc fb8b 6a3c df52 833b 545d 693d
00000140: f30e 5fbd 143f d6bc bb73 963c 69e9 30bd
00000150: 5519 64bd 2542 26bd 8a19 04bd 9bc6 0b39
00000160: 98a1 17bc bf0c 6a3d cc18 fabb 8004 d63c
00000170: d052 8b3d 2a55 023d d2a2 593d 840d 8ebc
00000180: 472a cabc a846 5b3d aa0b 34bd d8c8 8f3c
00000190: ae50 333d 7ad9 213c 4966 e33c 0c8c 613b
000001a0: b264 153d 6cbc 4a3d 4eb0 6ebd 912c 36bd
000001b0: c077 d83a cdda ab3b 5228 dabc f096 0b3c
000001c0: 7a38 f33a 08db 9bbc 6582 74bd 9617 733d
000001d0: a245 07bd f763 55bd 2a90 393d 14f7 b63d
000001e0: afa3 103d 516e 2a3c e4a6 6abd f460 d9bc
000001f0: 5810 8d3c 4f56 3d3c b983 dabb e65a 8ebc

fc3.weight f4 [64, 128]
-0.03874339 -0.09273927 -0.007278952 0.092886776 0.15374273 0.001910273 0.049726404 0.06222142
0.113499954 0.10768099 -0.04480317 0.11932215 -0.03733382 0.084269494 -0.010215674 0.12544802
-0.043390956 -0.083862275 0.06837329 0.123694405 0.023536047 0.008151144 -0.027519548 0.00076713087
0.009236771 -0.061387002 0.089368485 0.030191334 0.07068605 0.09441849 0.03828314 0.011953469
0.07943803 -0.073242545 -0.0035518932 -0.08136916 0.011295895 -0.098281324 0.13509881 0.042644322
0.056104004 0.11528334 -0.08659149 0.09024607 0.12347774 0.11357439 0.0037134534 0.039139934
-0.08182337 -0.0866211 0.07887207 0.019132582 0.044130415 0.035298146 0.05537412 -0.01947852
-0.018366154 0.054233156 0.09098174 -0.08004763 -0.09156811 0.04369908 0.1336897 0.068542354
0.00768491 0.03894791 0.059039854 0.045538202 0.08686744 0.08056891 0.10612777 0.12676392
0.08986756 -0.017507343 0.017060056 0.06885775 0.067009486 -0.03145856 0.15723075 0.04741295
0.0102773225 -0.068870336 0.011382803 -0.023678586 -0.078167334 0.0072399625 -0.068595976 -0.029461926
-0.012013319 0.12119727 0.021860782 0.057655763 0.033575073 -0.049468577 0.017919809 -0.1056283
-0.07589182 -0.014869929 0.06468025 0.055887748 0.00432095 -0.04328073 0.027606132 0.05904779
-0.019812433 0.041253634 0.093035 -0.08281054 0.006150916 -0.024531616 -0.050624188 0.028788483
-0.039230093 -0.12110223 0.1276903 -0.07544411 0.066030115 0.0021743097 -8.8147106e-05 0.0073257354
-0.0030380927 0.018676374 0.06763479 -0.014947817 0.11333442 -0.03837001 0.10061693 0.12898281
-0.10680829 0.03745948 0.051759228 0.09325728 0.05810969 -0.0899152 0.0707321 -0.11081497
0.045193 0.0068252236 0.10768162 0.051889867 0.051785864 -0.11666488 0.06951975 -0.07375588
0.100339025 0.076604135 -0.005967982 -0.07814241 -0.027950283 0.030300971 -0.047731802 -0.10060835
-0.08914159 0.06000814 0.06205967 0.06641906 -0.06262429 -0.038093634 -0.121747784 0.050471872
0.024713144 -0.122942194 0.068326436 0.030352585 -0.028775444 0.088452026 0.05707082 0.11833297
-0.056448594 -0.079951525 0.06304758 0.06461488 0.030652087 -0.09625025 -0.11703172 0.07334828
0.058713038 0.105677634 0.075145185 -0.0055952617 -0.020761475 -0.010625467 -0.0741466 0.01781241
0.05330271 -0.1133705 0.077005476 0.052195184 -0.10738145 0.10983442 -0.091780744 0.11929786
-0.11318784 -0.07974438 0.044594653 0.08581087 0.059022088 -0.043305133 0.07342711 0.0027270857
0.041663066 -0.024007011 -0.042344123 -0.007841188 0.020317078 -0.10292016 0.070265576 -0.096618004
-0.12357047 -0.0765332 0.044682648 -0.007192254 -0.068678096 0.07799408 0.08401841 0.035924293
-0.09303303 -0.07523695 0.029873956 0.05817975 -0.015965069 0.005586073 -0.058454826 -0.111704454
-0.044482224 -0.037970535 0.08074674 -0.102875054 -0.013003467 0.07897025 -0.09453068 0.07285443
-0.0018859846 -0.06336978 -0.0038240552 0.05794771 0.009583756 0.056297656 0.08199267 0.03827864
-0.037769344 0.021355808 0.004677284 0.0101775015 0.039990425 0.12117867 -0.04648368 -0.1090125
0.016163975 0.07226169 0.100670956 -0.04142256 -0.124284804 0.082283124 -0.09949264 -0.065166056
00000000: 64b1 1ebd 16ee bdbd 4684 eebb 6c3b be3d
00000010: bc6e 1d3e 2062 fa3a eaad 4b3d e3db 7e3d
00000020: aa72 e83d da87 dc3d 8783 37bd 2c5f f43d
00000030: 59eb 18bd 7c95 ac3d a45f 27bc 7275 003e
00000040: b7ba 31bd fcbf abbd 4c07 8c3d 7e53 fd3d
00000050: abce c03c 608c 053c ad70 e1bc 4819 493a
00000060: d355 173c f070 7bbd d306 b73d d153 f73c
00000070: d9c3 903d 7b5e c13d c8ce 1c3d 7cd8 433c
00000080: 68b0 a23d 3000 96bd e1c6 68bb e0a4 a6bd
00000090: 6b12 393c b847 c9bd 5857 0a3e d0ab 2e3d
000000a0: 50cd 653d ac19 ec3d e156 b1bd eed2 b83d
000000b0: e6e1 fc3d b199 e83d 695d 733b 3251 203d
000000c0: 0393 a7bd 6766 b1bd ae87 a13d efbb 9c3c
000000d0: 18c2 343d ca94 103d f9cf 623d 6b91 9fbc
000000e0: 9e74 96bc 9623 5e3d a254 ba3d 03f0 a3bd
000000f0: 1088 bbbd cefd 323d f4e5 083e ef5f 8c3d
00000100: b3d1 fb3b d887 1f3d c6d3 713d 4486 3a3d
00000110: 8ee7 b13d 5001 a53d 8459 d93d 67ce 013e
00000120: 7c0c b83d 8f6b 8fbc 88c1 8b3c 4b05 8d3d
00000130: 453c 893d b1da 00bd 1901 213e 1534 423d
00000140: 3762 283c e40b 8dbd f07e 3a3c 98f9 c1bc
00000150: 3216 a0bd 353d ed3b 0c7c 8cbd 235a f1bc
00000160: 83d3 44bc 4636 f83d 6215 b33c 7328 6c3d
00000170: 0486 093d 909f 4abd 90cc 923c a653 d8bd
00000180: 2c6d 9bbd 01a1 73bc 1477 843d 8dea 643d
00000190: c196 8d3b 2247 31bd 4126 e23c 18dc 713d
000001a0: af4d a2bc 92f9 283d 2289 be3d 9398 a9bd
000001b0: a08d c93b 87f6 c8bc 4f5b 4fbd d3d5 eb3c
000001c0: bcaf 20bd 7204 f8bd 3fc1 023e 7182 9abd
000001d0: cc3a 873d dd7e 0e3b 9edb b8b8 b90c f03b
000001e0: bd1a 47bb 32ff 983c 1c84 8a3d b0e7 74bc
000001f0: e01b e83d df29 1dbd 4010 ce3d 1214 043e
00000200: 4ebe dabd 1d6f 193d 7c01 543d acfd be3d
00000210: 6d04 6e3d 7625 b8bd fedb 903d f6f2 e2bd
00000220: 4c1c 393d 20a6 df3b 2e88 dc3d 788a 543d
00000230: 6a1d 543d ffed eebd 5f60 8e3d 530d 97bd
00000240: 8c7e cd3d a1e2 9c3d 108f c3bb 2109 a0bd
00000250: fef7 e4bc be39 f83c 6c82 43bd c00b cebd
00000260: de8f b6bd 18cb 753d 4832 7e3d b706 883d
00000270: 2a41 80bd 1208 1cbd e756 f9bd 98bb 4e3d
00000280: 3873 ca3c 1ec9 fbbd bbee 8b3d fca5 f83c
00000290: 7bba ebbc 5626 b53d 18c3 693d 8e58 f23d
000002a0: a436 67bd a0bd a3bd 171f 813d ce54 843d
000002b0: 161a fb3c da1e c5bd 54ae efbd 9f37 963d
000002c0: 157d 703d 846d d83d b8e5 993d 7558 b7bb
000002d0: f813 aabc 7016 2ebc 2cda 97bd 55eb 913c
000002e0: f153 5a3d cb2e e8bd 0cb5 9d3d 9eca 553d
000002f0: ceea dbbd def0 e03d 8bf7 bbbd 7052 f43d
00000300: 07cf e7bd 0651 a3bd e2a8 363d 9cbd af3d
00000310: 25c1 713d b960 31bd f460 963d e8b8 323b
00000320: e4a6 2a3d 5aaa c4bc 0871 2dbd 5478 00bc
00000330: 0070 a63c cec7 d2bd 66e7 8f3d a9df c5bd
00000340: 8412 fdbd 70bd 9cbd 2705 373d 00ad ebbb
00000350: 1aa7 8cbd 5cbb 9f3d d811 ac3d 5a25 133d
00000360: 1a88 bebd d415 9abd 3aba f43c e44d 6e3d
00000370: 2dc9 82bc 600b b73b 546e 6fbd 4ec5 e4bd
00000380: fe32 36bd fe86 1bbd 8c5e a53d 28b0 d2bd
00000390: 7e0c 55bc 28bb a13d 4d99 c1bd b434 953d
000003a0: 2433 f7ba 04c8 81bd 009d 7abb 945a 6d3d
000003b0: 3005 1d3c 5f98 663d c6eb a73d 10ca 1c3d
000003c0: 07b4 1abd 60f2 ae3c e743 993b 89bf 263c
000003d0: 00cd 233d 862c f83d ac65 3ebd f241 dfbd
000003e0: 506a 843c f0fd 933d 932c ce3d b4aa 29bd
000003f0: 0889 febd 0e84 a83d ccc2 cbbd c875 85bd

fc3.bias f4 [64]
0.016145734 0.07765052 -0.03922425 0.0023968068 0.08907595 0.08756441 0.13377963 0.020729698
0.09410426 0.08691572 -0.03876844 -0.009363943 -0.06929464 0.045123566 -0.06806939 0.06808511
0.08842269 0.08746978 0.11270184 0.03884554 0.012227202 -0.015143238 -0.08640932 0.029066099
-0.075887784 0.037124082 -0.041575436 0.10889372 0.0485721 -0.046041016 0.011135552 0.022500942
0.07320973 0.025094792 -0.039112166 -0.06385165 0.042504404 -0.039654166 -0.036036517 -0.009286853
0.06240723 0.004228256 0.074075036 0.06386219 0.009691796 -0.034536403 0.017530208 -0.057020333
0.004624622 0.0787955 0.084559806 0.0634302 -0.033435218 0.07284206 0.0554875 -0.019123996
0.019143194 -0.021928474 -0.0754581 0.0476875 -0.04422908 -0.066018865 -0.0065993876 -0.04537971
00000000: 0f44 843c 3c07 9f3d 9ba9 20bd bf13 1d3b
00000010: 746d b63d f854 b33d 87fd 083e 54d1 a93c
00000020: bcb9 c03d de00 b23d a8cb 1ebd 396b 19bc
00000030: 59ea 8dbd 7dd3 383d f767 8bbd 3570 8b3d
00000040: f516 b53d 5b23 b33d 39d0 e63d 801c 1f3d
00000050: 9a54 483c 581b 78bc 5ff7 b0bd 071c ee3c
00000060: 0e6b 9bbd 6c0f 183d 014b 2abd ac03 df3d
00000070: 8af3 463d 8195 3cbd e471 363c e553 b83c
00000080: fcee 953d 9893 cd3c 1434 20bd a7c4 82bd
00000090: 1919 2e3d 686c 22bd 079b 13bd e227 18bc
000000a0: b99e 7f3d 2f8d 8a3b a7b4 973d 2eca 823d
000000b0: 57ca 1e3c 0b76 0dbd 839b 8f3c 278e 69bd
000000c0: 248a 973b 895f a13d b12d ad3d b1e7 813d
000000d0: 5ef3 08bd 382e 953d dc46 633d eda9 9cbc
000000e0: 30d2 9c3c 58a3 b3bc c789 9abd f853 433d
000000f0: 8d29 35bd e634 87bd ad3f d8bb 13e0 39bd

fc4.weight f4 [1, 64]
0.046695385 0.0028022672 0.0030637346 -0.0005311809 0.020463385 0.022671921 0.14652185 0.021917043
0.024067063 0.02221769 0.00010394776 0.024099613 0.0019462986 0.0037097863 -0.0005406958 0.0059940475
0.02161232 0.025947506 0.025539475 0.025224652 0.025610838 0.025408804 0.006455918 0.023069132
0.0044506853 0.029588087 0.03523695 0.025700482 0.023079144 -0.00068453513 0.024266683 0.025800556
0.024614163 0.023642365 0.022441272 0.021823732 0.02291182 0.02271767 0.0108941905 0.023524234
0.023720987 -0.0006849093 0.023459932 0.04256058 0.025514556 -0.0006924902 0.025319694 0.003600619
0.023339918 0.02331983 0.021346355 0.03264821 0.023984585 0.04719589 0.052543208 -0.0024376109
0.021141624 0.022469705 -0.00047594047 0.024561457 -0.0029332836 0.0017425951 0.044863116 0.008163739
00000000: a943 3f3d 3ea6 373b f0c8 483b f23e 0bba
00000010: d4a2 a73c 77ba b93c d309 163e 5f8b b33c
00000020: 4a28 c53c df01 b63c 87fe d938 8d6c c53c
00000030: f21a ff3a e31f 733b 7bbd 0dba b769 c43b
00000040: 520c b13c dd8f d43c 2938 d13c eea3 ce3c
00000050: d2cd d13c 2026 d03c 2a8c d33b 7afb bc3c
00000060: 0ed7 913b b762 f23c 9f54 103d d189 d23c
00000070: 7910 bd3c 6072 33ba ecca c63c b05b d33c
00000080: a4a3 c93c a2ad c13c c2d6 b73c afc7 b23c
00000090: 92b1 bb3c 681a ba3c 8c7d 323c e5b5 c03c
000000a0: 8452 c23c 7c8b 33ba 0b2f c03c 0154 2e3d
000000b0: e703 d13c 3b88 35ba 3f6b cf3c 5df8 6b3b
000000c0: 5b33 bf3c 3a09 bf3c 8dde ae3c 21ba 053d
000000d0: 527b c43c 7a50 413d 8c37 573d 53c0 1fbb
000000e0: 3331 ad3c 6312 b83c a687 f9b9 1c35 c93c
000000f0: 553c 40bb ca67 e43a 63c2 373d 34c1 053c
