continuous_action_space/Models/1_actor.pt (torch, 173263 bytes, 7 tensors)

fc1.weight f4 [256, 5]
0.052299283 0.04305291 0.017177366 -0.005010076 0.003804952 0.050481565 -0.059825614 0.036384746
0.009525023 -0.015426874 -0.008961238 -0.037686884 -0.05424705 -0.016910538 0.029155366 -0.016007766
-0.0011658072 -0.034611396 -0.044156805 0.029566035 0.00985229 -0.016061328 0.031968504 0.026412219
-0.037336893 -0.003161341 -0.047476515 0.040707193 -0.014844261 0.054980837 0.060580432 -0.052223317
-0.035346873 0.022596657 -0.019991346 -0.016253836 -0.01597108 -0.013409562 0.0052688867 -0.002737455
-0.032703377 -0.03823778 -0.017500676 0.0025394484 -0.005694054 -0.054649256 -0.05031512 -0.0015363246
0.030098818 0.036848746 0.047428787 0.030684799 0.04359483 0.059563324 0.019506656 -0.008541286
-0.0576557 -0.012058914 0.04996787 0.00016507506 -0.0589651 0.02248995 -0.037775733 -0.042280056
-0.021668889 0.001503244 0.012020335 0.051561527 0.031638794 -0.046838894 -0.029203378 -0.05135198
0.033376656 0.06202504 0.043246254 -0.015344486 -0.027957566 0.044773005 -0.03682468 0.020579092
0.014195889 -0.009364352 0.03723751 -0.0506353 -0.02728311 0.05719512 0.047530018 -0.040769488
-0.004870251 0.029091977 -0.05499968 -0.038353987 -0.012112729 -0.010432422 -0.035778455 0.025697507
0.057545036 0.00030068308 5.428493e-05 0.05872044 0.00815703 -0.016824797 0.056904532 0.022627793
-0.016023137 0.042228907 0.04080058 -0.018341973 -0.024530783 -0.05450888 -0.05670829 -0.051395103
0.01679153 -0.061100274 0.0016293973 0.024620846 0.04804609 0.052904725 0.012628503 -0.047349945
0.0044387802 0.046354078 -0.0051484704 -0.023202509 0.01590757 -0.023689844 0.012685418 0.028023824
0.017588824 -0.036245123 0.052322432 -0.02213946 0.026679687 0.032636374 0.037977703 -0.037361406
0.044554286 0.055994503 0.04739526 0.0015028417 0.042839877 -0.030083045 0.058707677 -0.022511251
-0.04327807 0.007526569 0.0024340153 0.039959148 -0.0025540441 0.02053237 -0.002848424 -0.062023297
0.028832205 -0.053076632 -0.02049537 -0.061640136 0.031849258 -0.037373424 0.028132647 0.036490113
-0.057603 -0.033533387 -0.058893092 0.0304702 -0.03466899 0.043216154 -0.012998484 -0.02652882
-0.012164883 0.002855502 -0.035471223 -0.022775382 -0.05340302 -0.027469218 0.021388918 -0.0062180236
0.0622944 0.056795582 -0.017148003 -0.022913896 -0.042016357 0.033099003 0.010445923 -0.050686277
-0.040408053 0.020799838 0.059339322 0.037000664 -0.00805971 0.024031974 0.044605553 0.0045150295
-0.038808763 -0.042317584 -0.021901533 -0.019361451 0.048660792 0.03507761 -0.0061181188 0.01806897
-0.026363932 0.024967998 0.020935237 0.044427797 0.0155983195 0.02945596 -0.038479753 -0.046979554
-0.017443597 0.027796246 0.0362487 0.022635892 -0.051866747 0.009053111 0.005140431 -0.03440623
0.042356074 0.017581731 0.023109846 -0.04221206 0.035301656 -0.015483409 -0.03619212 -0.031058468
0.028344579 -0.055932127 -0.03318003 -0.044105075 -0.055095404 -0.021924272 -0.059001386 0.052398622
0.023079194 -0.04241264 -0.026976317 -0.033668138 -0.0344543 0.014216483 0.054768853 0.025000952
-0.031081788 0.02391801 0.043740995 0.05653298 -0.016400076 0.008607365 0.043002583 0.050923176
-0.024248369 -0.04926712 0.052816406 0.031625435 0.01884684 -0.01495178 -0.029505178 -0.0076207668
00000000: c637 563d 4058 303d 8cb7 8c3c 902b a4bb
00000010: 805c 793b c2c5 4e3d b40b 75bd 2c08 153d
00000020: d80e 1c3c 00c1 7cbc 28d2 12bc 905d 1abd
00000030: 2832 5ebd f887 8abc 3cd7 ee3c b822 83bc
00000040: 00ce 98ba aec4 0dbd c4dd 34bd 7834 f23c
00000050: 806b 213c 0c93 83bc 68f1 023d 705e d83c
00000060: 92ee 18bd 802e 4fbb bc76 42bd 96bc 263d
00000070: 5835 73bc 9633 613d 3023 783d 1ee8 55bd
00000080: e2c7 10bd a01c b93c e4c4 a3bc c426 85bc
00000090: c8d5 82bc c8b3 5bbc a0a6 ac3b e066 33bb
000000a0: faf3 05bd 389f 1cbd 945d 8fbc e06c 263b
000000b0: 3095 babb e6d7 5fbd 3a17 4ebd 805e c9ba
000000c0: cc91 f63c b6ee 163d b044 423d b05e fb3c
000000d0: 7e90 323d acf8 733d 6ccc 9f3c c0f0 0bbc
000000e0: 6228 6cbd c092 45bc 1cab 4c3d 0018 2d39
000000f0: 6485 71bd d83c b83c baba 1abd da2d 2dbd
00000100: f482 b1bc 8008 c53a f0f0 443c 2e32 533d
00000110: ae97 013d 24da 3fbd ec3b efbc 7456 52bd
00000120: f6b5 083d f80d 7e3d fc22 313d 7067 7bbc
00000130: 4407 e5bc e663 373d 7ad5 16bd 7c95 a83c
00000140: e095 683c f06c 19bc 5c86 183d f666 4fbd
00000150: d480 dfbc 6e45 6a3d d6ae 423d e8fd 26bd
00000160: a096 9fbb 4c52 ee3c 5847 61bd 1219 1dbd
00000170: 7874 46bc c0ec 2abc 6e8c 12bd 9483 d23c
00000180: 58b4 6b3d 00a5 9d39 00b0 6338 d884 703d
00000190: 10a5 053c 28d4 89bc ba14 693d ec5d b93c
000001a0: f442 83bc 38f8 2c3d 821e 273d e841 96bc
000001b0: c8f4 c8bc b444 5fbd f446 68bd ac83 52bd
000001c0: 648e 893c 4844 7abd 8091 d53a a8b1 c93c
000001d0: facb 443d a0b2 583d c8e7 4e3c 04f2 41bd
000001e0: 3073 913b c6dd 3d3d 80b4 a8bb 3013 bebc
000001f0: 9850 823c 3411 c2bc 80d6 4f3c 3892 e53c
00000200: 7016 903c c475 14bd 0c50 563d d05d b5bc
00000210: 5c8f da3c b8ad 053d 828e 1b3d 4608 19bd
00000220: 8e7e 363d 7e5a 653d 8821 423d 00fb c43a
00000230: de78 2f3d b870 f6bc 7677 703d 8469 b8bc
00000240: 5844 31bd 70a1 f63b 0084 1f3b 34ac 233d
00000250: c061 27bb 8033 a83c a0ac 3abb 240c 7ebd
00000260: 8431 ec3c e266 59bd e8e5 a7bc 5e7a 7cbd
00000270: 5e74 023d e014 19bd 7076 e63c a876 153d
00000280: 20f1 6bbd 4e5a 09bd e239 71bd a49c f93c
00000290: 1201 0ebd 6c03 313d 98f7 54bc f852 d9bc
000002a0: 384f 47bc 6023 3b3b 464a 11bd 7093 babc
000002b0: 20bd 5abd 2007 e1bc d037 af3c 90c0 cbbb
000002c0: 6a28 7f3d 7ca2 683d f879 8cbc ecb5 bbbc
000002d0: 5819 2cbd d292 073d 6025 2b3c 6a9c 4fbd
000002e0: ea82 25bd 6c64 aa3c ca0d 733d 028e 173d
000002f0: e00c 04bc b4de c43c 50b4 363d d0f2 933b
00000300: f0f5 1ebd 3455 2dbd d86a b3bc e89b 9ebc
00000310: 8a50 473d 8aad 0f3d 807a c8bb 6005 943c
00000320: 2cf9 d7bc b089 cc3c 6080 ab3c ecf9 353d
00000330: 1890 7f3c a04d f13c f29c 1dbd a26d 40bd
00000340: e0e5 8ebc f4b4 e33c 8479 143d e86e b93c
00000350: 3a72 54bd 8053 143c 1071 a83b 8ced 0cbd
00000360: 907d 2d3d 9007 903c dc50 bd3c 8ee6 2cbd
00000370: 7898 103d 20ae 7dbc 303e 14bd 546e febc
00000380: e432 e83c 1619 65bd c8e7 07bd 86a7 34bd
00000390: b8ab 61bd 889a b3bc 70ab 71bd f09f 563d
000003a0: 9410 bd3c e0b8 2dbd 70fd dcbc 9ae7 09bd
000003b0: f41f 0dbd 40ec 683c 4e55 603d ccce cc3c
000003c0: 3c9f febc b4ef c33c c229 333d 208f 673d
000003d0: 7459 86bc e805 0d3c 7a23 303d d294 503d
000003e0: 84a4 c6bc 52cc 49bd 0456 583d ac89 013d
000003f0: b064 9a3c 50f8 74bc d8b4 f1bc a0b7 f9bb

fc1.bias f4 [256]
-0.049866565 0.13695861 -0.24932216 0.18402752 -0.22586727 -0.26683745 -0.41540855 -0.15688473
0.007771879 -0.18242289 0.06737983 -0.39362568 0.20873445 -0.2212824 -0.28736818 0.05706518
-0.28742433 0.044751223 -0.22337936 -0.17024493 0.024755914 -0.3197682 0.25525647 -0.34257352
-0.40332955 -0.06042341 0.2621937 -0.32651007 -0.05237031 -0.2993479 -0.2022644 0.078949496
-0.25596645 0.041917104 0.19674559 0.25732008 0.007828123 0.1827488 -0.036896817 -0.063094825
-0.16815281 -0.32444546 0.13071024 -0.16401324 -0.2940653 0.28045404 -0.17445157 -0.095027864
-0.34034586 -0.063035056 -0.27015117 0.3993395 0.16812472 -0.20711446 -0.40057683 0.2945548
0.34482265 0.028705908 0.06976192 -0.02903063 -0.2668335 0.17342691 -0.25007892 -0.10028022
0.2740052 -0.19671339 0.18780725 0.054193743 0.2963076 0.31521022 0.37117878 -0.12455062
-0.14558503 -0.08715635 0.105095945 -0.28751767 -0.38900274 -0.1354194 -0.34865668 0.16554372
-0.4015728 0.16157235 -0.31352806 0.07376837 -0.2992412 -0.3247801 -0.07735211 0.39029464
-0.3025701 0.19077554 -0.08017599 0.18335943 -0.19605568 0.34139708 0.009882981 -0.19799027
-0.10843738 0.23929636 0.22233115 -0.18928687 -0.2604505 0.3492487 -0.4159202 -0.30681863
-0.072066806 0.42987338 -0.04180291 0.4231712 0.2714236 -0.31510547 -0.38493273 0.3491184
-0.22979179 0.08114563 0.068762 0.25873658 0.4195429 -0.23604146 0.2776722 -0.22069441
0.22479971 0.3572156 -0.32840338 -0.036128487 -0.1652272 -0.03428837 0.00049601495 -0.34936988
-0.10670837 0.31986362 0.3695894 -0.1263184 -0.03874504 0.2926851 -0.101520896 0.3818174
0.066036634 0.18119709 0.39236602 -0.08646729 0.4055888 -0.2510103 0.32014167 -0.009810637
0.3147408 0.2858636 -0.0696007 -0.20495181 -0.3367176 -0.17561814 0.42900845 -0.18128026
-0.30941552 0.23468584 -0.33173156 0.3534524 0.12599677 0.1209728 0.098005824 -0.12497893
-0.30717742 -0.35675067 -0.3249467 0.28829762 0.2801356 -0.18798365 0.42414618 0.36363602
0.16028482 0.038013227 0.17196521 0.22711408 -0.18136875 0.2593179 -0.16732077 0.32028013
0.17020985 -0.1957366 -0.1441029 -0.2798004 0.10962672 -0.24576727 -0.32456148 0.18325669
0.19581753 0.08168888 0.09668075 -0.1607788 0.31546074 -0.12856282 -0.03580307 -0.23819515
0.12226204 -0.01645694 -0.034274027 -0.2612816 -0.26212627 -0.23444647 0.13917822 -0.15327834
-0.44619885 -0.4230886 0.41440463 -0.32897276 -0.14714617 0.41555345 0.3595075 0.43443912
-0.35404295 0.27137297 -0.15089758 -0.25971523 -0.36000443 -0.14589942 -0.17966586 -0.13537525
-0.025626339 -0.08855541 -0.34958223 -0.2655255 0.29779238 -0.28286135 -0.0038185264 0.3044945
0.037651982 0.39808097 -0.25047147 -0.35746843 0.26997027 -0.075576074 0.33271825 0.19112507
-0.106541716 -0.20893629 0.3611336 0.33019936 0.03452619 0.39566278 -0.12556402 -0.4295106
0.3271775 -0.1417815 -0.24214046 -0.0222744 -0.27535832 0.40617624 -0.2950428 0.29821157
-0.26576945 0.32982847 0.4364821 0.31262985 -0.023167856 0.12961835 -0.093012035 0.39046407
00000000: e240 4cbd e13e 0c3e 4f4e 7fbe b671 3c3e
00000010: c049 67be eb9e 88be 6eb0 d4be 64a6 20be
00000020: 3fab fe3b 11cd 3abe 70fe 893d 4e89 c9be
00000030: 7cbe 553e da97 62be ec21 93be 2ebd 693d
00000040: 4829 93be 0f4d 373d 8fbd 64be b054 2ebe
00000050: eacc ca3c a8b8 a3be fab0 823e cc65 afbe
00000060: 3681 cebe 8a7e 77bd 413e 863e 542c a7be
00000070: 4082 56bd 2144 99be 661e 4fbe 46b0 a13d
00000080: 090e 83be 45b1 2b3d ad77 493e 75bf 833e
00000090: 8741 003c 8022 3b3e 1e21 17bd dc37 81bd
000000a0: 4030 2cbe b71d a6be e8d8 053e 16f3 27be
000000b0: ba8f 96be ac97 8f3e 6fa3 32be f89d c2bd
000000c0: d041 aebe 8618 81bd 4151 8abe 3a76 cc3e
000000d0: e328 2c3e d015 54be 6818 cdbe e3cf 963e
000000e0: 988c b03e a728 eb3c 56df 8e3d a5d1 edbc
000000f0: 679e 88be d396 313e 580a 80be b75f cdbd
00000100: 694a 8c3e 3c6f 49be 8b50 403e 42fa 5d3d
00000110: a1b5 973e 3c63 a13e 250b be3e 6514 ffbd
00000120: 3e14 15be 077f b2bd 8b3c d73d 8435 93be
00000130: 5e2b c7be 62ab 0abe 2183 b2be 4b84 293e
00000140: f39a cdbe 3973 253e c086 a0be df13 973d
00000150: 2436 99be 9449 a6be c86a 9ebd b3d4 c73e
00000160: 78ea 9abe aa5a 433e 4f33 a4bd 93c2 3b3e
00000170: d2c2 48be 99cb ae3e 3aec 213c f6bd 4abe
00000180: 6b14 debd 1b0a 753e c7aa 633e 6bd4 41be
00000190: c559 85be bad0 b23e 7ef3 d4be 5517 9dbe
000001a0: c397 93bd 5d18 dc3e 8739 2bbd e5a9 d83e
000001b0: 09f8 8a3e 8155 a1be e715 c5be a6bf b23e
000001c0: 8a4e 6bbe ae2f a63d 17d3 8c3d 1f79 843e
000001d0: 54ce d63e dab4 71be 0d2b 8e3e b7fd 61be
000001e0: e531 663e f7e4 b63e 7d24 a8be 77fb 13bd
000001f0: 5231 29be f671 0cbd 0007 023a 9ce0 b2be
00000200: eb89 dabd 2ac5 a33e d23a bd3e 9c59 01be
00000210: 1eb3 1ebd d2da 953e 30ea cfbd 927d c33e
00000220: 373e 873d bb8b 393e 33e4 c83e c315 b1bd
00000230: 56a9 cf3e 6c84 80be 9ce9 a33e cbbc 20bc
00000240: b525 a13e b75c 923e d08a 8ebd e3de 51be
00000250: 4066 acbe 3ed5 33be ffa6 db3e 88a1 39be
00000260: b66b 9ebe 7c51 703e b8d8 a9be b7f7 b43e
00000270: 4c05 013e 96c0 f73d 47b7 c83d f4f4 ffbd
00000280: 5c46 9dbe 06a8 b6be 6a5f a6be bf9b 933e
00000290: ef6d 8f3e c97e 40be b029 d93e 802e ba3e
000002a0: b421 243e c2b3 1b3d a617 303e 9890 683e
000002b0: bbb8 39be 51c5 843e 2356 2bbe c2fb a33e
000002c0: 7e4b 2e3e 2d6f 48be b68f 13be ff41 8fbe
000002d0: f983 e03d 6aaa 7bbe ec2c a6be a4a7 3b3e
000002e0: 6484 483e 804c a73d 8f00 c63d 33a3 24be
000002f0: 1284 a13e f9a5 03be 3da6 12bd 6ee9 73be
00000300: 8564 fa3d b4d0 86bc ec62 0cbd b4c6 85be
00000310: 6a35 86be bc12 70be bc84 0e3e fff4 1cbe
00000320: 2d74 e4be 129f d8be d82c d43e 1e6f a8be
00000330: 7cad 16be 6cc3 d43e 5e11 b83e ce6e de3e
00000340: 1e45 b5be 66f1 8a3e e584 1abe 65f9 84be
00000350: 8052 b8be a866 15be 54fa 37be cf9f 0abe
00000360: 54ee d1bc 8a5c b5bd 71fc b2be f5f2 87be
00000370: 3e78 983e 34d3 90be 3e40 7abb b4e6 9b3e
00000380: f738 1a3d 45d1 cb3e cc3d 80be 1a06 b7be
00000390: 8b39 8a3e a1c7 9abd 0c5a aa3e 4ab6 433e
000003a0: 8b32 dabd 65f3 55be 81e6 b83e e40f a93e
000003b0: 566b 0d3d 5094 ca3e db93 00be d0e8 dbbe
000003c0: cf83 a73e 2b2f 11be abf3 77be cd78 b6bc
000003d0: c4fb 8cbe 55f6 cf3e da0f 97be 30af 983e
000003e0: ef12 88be 47df a83e 957a df3e 0511 a03e
000003f0: 84ca bdbc acba 043e 187d bebd e8ea c73e

fc2.weight f4 [128, 256]
-0.030752037 0.063214034 0.045605175 -0.022483079 0.048021898 0.082543656 0.0356884 -0.034378216
-0.021678463 0.08406468 0.08541651 0.078738265 -0.048163436 -0.07935075 -0.058826316 0.015156185
-0.06874688 -0.06736269 0.04490581 0.02220532 -0.065381974 -0.055877827 0.076846495 0.06375632
-0.0016952937 0.06345874 0.00978301 -0.08245278 -0.04908365 -0.02870095 -0.040015765 0.08068654
-0.03139527 -0.009937942 0.040937338 0.064806804 0.078662 0.04313551 0.07137072 -0.069729224
0.05781403 0.06737033 0.06993935 0.011841831 0.08415693 -0.04642452 -0.0641472 -0.010146084
-0.009743087 0.06448745 0.010888059 -0.077888004 -0.06078643 -0.009902423 -0.011347712 -0.0027181134
0.035102844 -0.0030505466 -0.07660494 -0.016191576 0.020072753 -0.02797323 -0.07068671 -0.023864187
0.06385021 -0.065226175 -0.012785372 0.04380973 0.0038504621 -0.024313388 0.025566626 0.029986281
-0.017961059 -0.036511626 -0.034596514 0.023796827 0.005534808 0.033042453 -0.039012354 0.032904845
0.023901077 -0.037295513 -0.060327776 -0.012186339 0.07460766 0.020179542 0.036284264 -0.012743879
-0.0011411996 0.07736457 -0.02157552 0.048698153 -0.044957284 0.08582134 -0.057374556 0.08375372
0.01808636 0.02530916 -0.05158516 0.020616079 -0.057967637 -0.0067868438 -0.07261282 0.06730117
-0.022547742 0.07812587 0.06481365 0.06509812 0.07825787 0.033631857 -0.041268274 0.044647366
0.003075129 -0.03743679 -0.024612747 0.010761123 -0.04085988 0.04329894 -0.059317738 0.087556444
-0.07225703 0.0825738 -0.031687602 0.070266455 0.0057270085 0.03591806 0.029678293 0.06145294
-0.002638498 0.0762324 -0.004263491 -0.06729267 0.043871276 -0.035335094 -0.035906743 0.020527307
-0.07035462 0.07002869 -0.04594177 0.058759175 0.01846915 -0.0443881 0.021245046 -0.0088355495
-0.034627933 0.00029224623 -0.07133441 -0.068039626 -0.08708284 0.0059324745 0.022096306 0.010645904
0.018043466 -0.04942462 0.054548346 0.031216253 0.045267 -0.085418984 -0.0008275744 -0.0005733973
-0.04180661 0.024211774 -0.07379663 -0.05673405 0.004783488 -0.042140063 0.005483811 0.02709881
0.05509142 0.07271457 -0.053462084 -0.05215151 -8.706485e-05 0.032923643 0.055768307 0.034549393
0.007354393 0.075944796 -0.06698495 -0.024306804 0.049642287 -0.034900963 -0.08665308 0.028977538
0.045016542 -0.08382647 0.030732902 -0.018277455 0.04713534 0.03447846 -0.022010548 -0.07699385
0.0590793 0.07379893 0.08118724 -0.06667664 0.00068862684 0.007736507 0.052871313 -0.017728556
-0.028723741 0.061230425 -0.044273313 0.021725193 0.011104314 -0.026814215 0.055929076 0.07559887
-0.009592949 -0.016653916 0.06140072 0.010643228 0.015057235 0.0028677979 0.07857274 -0.041737687
0.055939645 -0.048364203 -0.019903522 0.044773385 -0.032098174 -0.010514659 0.021096678 0.07696812
0.08284338 -0.087982945 -0.028142758 -0.0870988 0.07076949 -0.028077135 0.04071514 -0.052521273
-0.07818646 -0.025701296 0.06772791 -0.02832773 0.08357245 -0.0024075122 -0.04544353 -0.08262161
0.020113118 -0.087440476 0.018738763 0.053653684 0.0626584 0.017826451 0.045275588 -0.041699078
-0.05862301 -0.05936808 0.015875842 0.044000447 0.02568197 0.0660024 -0.06310837 0.007015659
00000000: b2eb fbbc 5c76 813d 7ecc 3a3d 6f2e b8bc
00000010: 9cb2 443d a60c a93d 002e 123d 2cd0 0cbd
00000020: 0897 b1bc 1a2a ac3d daee ae3d 8741 a13d
00000030: 0647 45bd a582 a2bd ddf3 70bd a651 783c
00000040: 2acb 8cbd 73f5 89bd 28ef 373d eee7 b53c
00000050: fce6 85bd 26e0 64bd b261 9d3d ac92 823d
00000060: 9e34 deba a8f6 813d eb48 203c 01dd a8bd
00000070: f00b 49bd 411e ebbc 92e7 23bd fc3e a53d
00000080: 5498 00bd c0d2 22bc e9ad 273d 6eb9 843d
00000090: 8b19 a13d dcae 303d d02a 923d 32ce 8ebd
000000a0: 68ce 6c3d 75f9 893d 5d3c 8f3d 3d04 423c
000000b0: 785a ac3d a327 3ebd 9b5f 83bd c33b 26bc
000000c0: 78a1 1fbc ff11 843d d463 323c bf83 9fbd
000000d0: 31fb 78bd c63d 22bc c1eb 39bc 6022 32bb
000000e0: 00c8 0f3d aeeb 47bb 0de3 9cbd 32a4 84bc
000000f0: 9d6f a43c 1e28 e5bc 32c4 90bd d47e c3bc
00000100: e6c3 823d 4d95 85bd bd79 51bc d571 333d
00000110: 0958 7c3b df2c c7bc 1a71 d13c caa5 f53c
00000120: 1223 93bc 378d 15bd 13b5 0dbd 90f1 c23c
00000130: 565d b53b 8657 073d 6bcb 1fbd 3bc7 063d
00000140: 31cc c33c 2ec3 18bd 421a 77bd 36a9 47bc
00000150: e7cb 983d 914f a53c cf9e 143d b4cb 50bc
00000160: 4e94 95ba 5171 9e3d 25bf b0bc b777 473d
00000170: 2125 38bd 19c3 af3d 9501 6bbd 1287 ab3d
00000180: d929 943c 2855 cf3c f64a 53bd 0de3 a83c
00000190: 796f 6dbd 2c64 debb 08b6 94bd 32d5 893d
000001a0: 0bb6 b8bc 7500 a03d 05bd 843d 2a52 853d
000001b0: aa45 a03d 8fc1 093d ec08 29bd 28e0 363d
000001c0: 1a88 493b 5257 19bd aca0 c9bc 6c4f 303c
000001d0: b15c 27bd 3b5a 313d 28f7 72bd cb50 b33d
000001e0: 7efb 93bd 741c a93d dcca 01bd dce7 8f3d
000001f0: a1a9 bb3b d11e 133d e41f f33c 14b6 7b3d
00000200: a7ea 2cbb bc1f 9c3d c1b4 8bbb bdd0 89bd
00000210: 5eb2 333d 88bb 10bd f312 13bd e228 a83c
00000220: 1516 90bd 346b 8f3d 702d 3cbd 76ad 703d
00000230: 9d4c 973c 4cd0 35bd 170a ae3c fbc2 10bc
00000240: 05d6 0dbd a038 9939 c617 92bd 5c58 8bbd
00000250: 7d58 b2bd 3465 c23b 5003 b53c 286c 2e3c
00000260: e4cf 933c 7871 4abd 166e 5f3d 3ab9 ff3c
00000270: e469 393d 26f0 aebd 94f1 58ba 0b50 16ba
00000280: 683d 2bbd c557 c63c b022 97bd f761 68bd
00000290: cebe 9c3b 0f9b 2cbd 8ab1 b33b 53fe dd3c
000002a0: 8aa7 613d 60eb 943d 0ffb 5abd d29c 55bd
000002b0: 9696 b6b8 f1da 063d 4f6d 643d aa83 0d3d
000002c0: 1ffd f03b f288 9b3d 682f 89bd 101f c7bc
000002d0: b655 4b3d 50f4 0ebd 2c77 b1bd 4d62 ed3c
000002e0: 4463 383d 36ad abbd 91c3 fb3c 9aba 95bc
000002f0: fc10 413d 4939 0d3d 774f b4bc f4ae 9dbd
00000300: 23fd 713d e523 973d 7f45 a63d c38d 88bd
00000310: f784 343a 8682 fd3b 978f 583d 7a3b 91bc
00000320: 0d4e ebbc c1cc 7a3d ef57 35bd 08f9 b13c
00000330: deee 353c 7ca9 dbbc e315 653d 95d3 9a3d
00000340: bf2b 1dbc cb6d 88bc 527f 7b3d ef60 2e3c
00000350: 9fb2 763c aaf1 3b3b bfea a03d 23f5 2abd
00000360: f820 653d 8b19 46bd b60c a3bc 4c64 373d
00000370: 6079 03bd ad45 2cbc f1d2 ac3c 76a1 9d3d
00000380: caa9 a93d 6730 b4bd a48b e6bc db60 b2bd
00000390: 98ef 903d 0502 e6bc ebc4 263d 8c20 57bd
000003a0: 3920 a0bd 868b d2bc eeb4 8a3d 8e0f e8bc
000003b0: 0828 ab3d 5ac7 1dbb ff22 3abd 8535 a9bd
000003c0: 44c4 a43c fe13 b3bd 0982 993c f7c3 5b3d
000003d0: 0c53 803d c708 923c e572 393d a7cc 2abd
000003e0: ae1e 70bd f22b 73bd 0e0e 823c d039 343d
000003f0: ff62 d23c 442c 873d f63e 81bd 9de3 e53b

fc2.bias f4 [128]
0.04966595 0.059340857 0.0107698515 -0.05048237 0.059445098 0.05509691 -0.05375717 0.039184086
0.049968645 -0.015264116 -0.044644184 0.033095777 -0.007306263 0.034224123 0.0611033 -0.007887259
-0.0061360523 -0.029690467 -0.02542375 0.041330777 0.014100574 0.060099274 0.052329548 0.016741745
0.0019774884 0.060652457 0.042494237 -0.010916799 0.008446753 0.03644622 -0.009617858 0.051946476
0.031795926 0.03716571 0.031231903 0.0369765 -0.050837353 0.020706676 -0.01117035 -0.034965582
-0.051200338 -0.04503499 0.04170554 -0.017618813 0.03817737 -0.006439872 -0.008894868 -0.039203778
-0.008633368 -0.032366455 0.01394774 -0.057659134 -0.048129775 0.059241056 0.04155966 0.021772206
-0.050410084 -0.054964177 0.0032375827 -0.017871462 -0.023684919 -0.062247016 -0.057738036 -0.02803927
-0.054146945 -0.009858631 -0.030198194 0.019177169 -0.005459778 0.013108164 -0.052673243 0.059315987
0.058097392 -0.034579255 0.016699456 0.012566224 -0.033459798 -0.04148949 0.013942726 0.024199024
-0.057459407 0.016887687 -0.043399513 0.027517714 0.009194933 -0.02966275 0.0064788833 0.059691437
-0.0052724183 0.042563565 0.00048270077 -0.044759206 -0.060389154 -0.044281326 -0.011389352 -0.019060947
-0.058747172 0.04315888 0.056410477 -0.011594884 -0.04808291 -0.013303794 0.048084036 0.027251437
-0.045975976 -0.007905073 -0.027073868 0.034829445 -0.02441337 0.018126465 -0.05719375 0.010574058
0.034790486 -0.00546816 -0.04078632 0.035476893 -0.027343847 0.029938795 0.033307098 0.03661164
0.012356028 0.028115094 -0.059833094 -0.028672554 0.030143373 0.002850704 0.036834218 -0.04573057
00000000: 866e 4b3d 660f 733d 0874 303c 9ac6 4ebd
00000010: b47c 733d 4cad 613d 7a30 5cbd 7e7f 203d
00000020: ecab 4c3d 5816 7abc d2dc 36bd 708f 073d
00000030: 6069 efbb 982e 0c3d 7447 7a3d 9039 01bc
00000040: f010 c9bb 6c39 f3bc 7845 d0bc 764a 293d
00000050: 1806 673c a82a 763d 8257 563d fc25 893c
00000060: c098 013b b66e 783d 700e 2e3d 60dc 32bc
00000070: 4064 0a3c a248 153d 3894 1dbc d4c5 543d
00000080: 723c 023d 123b 183d 0cda ff3c ac74 173d
00000090: d43a 50bd 0ca1 a93c d803 37bc 1238 0fbd
000000a0: 72b7 51bd 9c76 38bd 6ed3 2a3d 5455 90bc
000000b0: e05f 1c3d 9005 d3bb c8bb 11bc 2494 20bd
000000c0: f872 0dbc b092 04bd 1085 643c fc2b 6cbd
000000d0: ba23 45bd c0a6 723d 763a 2a3d a05b b23c
000000e0: ce7a 4ebd 1e22 61bd a02d 543b 2c67 92bc
000000f0: e006 c2bc baf6 7ebd b87e 6cbd 9cb2 e5bc
00000100: 30c9 5dbd 1886 21bc 3462 f7bc 7019 9d3c
00000110: f0e7 b2bb a0c3 563c e6bf 57bd 52f5 723d
00000120: 88f7 6d3d faa2 0dbd 4ccd 883c 90e2 4d3c
00000130: 240d 09bd e2f0 29bd 0870 643c 083d c63c
00000140: 8e5a 6bbd 0c58 8a3c b0c3 31bd d46c e13c
00000150: 58a6 163c 4cff f2bc d04c d43b 027f 743d
00000160: 40c4 acbb 2257 2e3d 0013 fd39 6e55 37bd
00000170: 9e5a 77bd 5660 35bd 689a 3abc b425 9cbc
00000180: e0a0 70bd 5ec7 303d ac0e 673d 78f8 3dbc
00000190: 96f2 44bd 28f8 59bc c4f3 443d 683e df3c
000001a0: 4e51 3cbd 4884 01bc 04ca ddbc 52a9 0e3d
000001b0: 8cfe c7bc f47d 943c fe43 6abd d03e 2d3c
000001c0: 7880 0e3d 402e b3bb 8e0f 27bd 3850 113d
000001d0: 3400 e0bc 3442 f53c 066d 083d 16f6 153d
000001e0: f070 4a3c a051 e63c 8c13 75bd b4e2 eabc
000001f0: 3cef f63c e0d2 3a3b 7adf 163d fa4f 3bbd

fc3.weight f4 [64, 128]
-0.036041185 0.044793934 0.010544315 -0.11817856 -0.019037738 0.037665904 0.04307443 -0.11919594
0.0070442706 -0.11848198 -0.028383687 -0.012697399 -0.015002653 0.045131028 0.06870003 -0.05042252
-0.00789988 0.062448606 -0.017381042 0.0036614686 0.008525059 -0.03634049 0.044049084 -0.10702333
0.0043411106 0.03898385 0.010904133 0.022643596 0.10960357 0.0036248118 -0.0031095594 -0.07934308
-0.08938131 0.054592863 -0.09318654 0.08294399 0.12118657 -0.044213846 -0.09588559 -0.036393955
-0.0009352118 -0.038850173 -0.027465925 -0.08555709 -0.049743563 -0.05170995 0.06644578 -0.046113506
0.12136927 0.056507513 -0.0026317537 -0.07093285 -0.09063321 0.047803342 -0.03400509 -0.119853675
0.05362782 -0.0840407 -0.087368846 -0.0457931 -0.063353315 0.029861629 0.06362696 -0.069213524
0.051175877 -0.051962078 0.030179441 0.06116411 0.09669466 -0.01960516 0.020557612 0.1035551
-0.089536354 0.03056775 0.10444306 -0.03032969 0.040231153 -0.025585502 -0.014288589 -0.052302018
0.0029259324 0.0016324222 -0.022262394 -0.07887949 -0.027125955 -0.05198802 -0.08308992 0.10851556
0.049756885 -0.05606492 0.03865789 0.085355565 0.11458604 0.09809989 -0.04757504 0.09296504
0.054361477 0.020283058 0.10384898 0.114772275 0.1086981 0.119261354 -0.10638514 0.0043159723
-0.015860632 0.08421551 0.04285048 -0.026729435 0.1248557 0.07101406 0.029210374 -0.09866749
0.07182492 -0.11650553 -0.038691983 0.061775774 -0.06497632 0.076526225 -0.05937843 0.11410196
0.09993741 0.04502736 -0.08829573 -0.077976 -0.097858444 -0.112195045 0.030076817 0.06811978
0.08898249 -0.06298712 -0.025306478 -0.049523264 -0.027380124 0.052223057 -0.095275864 -0.08294371
-0.03949009 0.031050235 -0.08503787 0.0019187629 -0.06633274 -0.11990507 -0.12455849 0.11556275
0.036933094 0.10586518 -0.100075975 -0.09738284 -0.016437858 0.116384596 -0.067950875 0.08918388
-0.047935203 0.09497051 -0.00029537082 -0.10292202 0.11840613 -0.049978584 -0.12060259 -0.0033423454
0.07946785 0.0006276816 0.052472442 0.11898124 -0.06228742 -0.0030219108 0.034675643 0.12008411
-0.049096987 0.11874944 -0.06934093 0.0688874 0.09090872 -0.032718495 0.03816758 0.0986931
-0.08011158 -0.12375595 -0.018200636 -0.0008304417 -0.10183041 0.0982025 -0.064299226 -0.094431594
-0.039339498 -0.10352558 -0.08318296 0.083183914 0.09192303 0.03463751 0.004782453 -0.00023330748
-0.0073520094 -0.021693766 0.026740715 0.035983607 -0.08935544 0.007410437 0.03941703 -0.027452037
0.03418988 0.121584415 0.06365836 0.119222745 0.10025972 -0.084073186 -0.09024806 -0.05981119
0.091142476 -0.10093562 -0.09531669 -0.011530027 -0.1219141 -0.022871196 0.00094664097 -0.1022377
-0.09265965 -0.028038844 0.050003335 -0.061595067 -0.08695933 -0.08150415 0.079315424 0.009716794
-0.09054795 -0.009515777 0.11097287 0.029240549 0.049686104 0.068522856 0.017096445 -0.069450766
0.017565131 -0.04301259 0.119708166 0.05415456 -0.10060018 0.11023176 -0.072136775 0.013719201
0.11981754 -0.00863263 -0.08509682 -0.096007854 0.03253992 -0.11702065 -0.10534267 -0.07358755
0.11241436 -0.08979049 0.08661538 -0.03460899 0.00026403368 -0.09703022 0.040639594 -0.03143777
00000000: ec9f 13bd d879 373d 10c2 2c3c 9a07 f2bd
00000010: 08f5 9bbc 9047 1a3d d06e 303d 001d f4bd
00000020: a0d3 e63b aea6 f2bd e884 e8bc c008 50bc
00000030: b0cd 75bc 50db 383d 9ab2 8c3d d887 4ebd
00000040: 806e 01bc 1cca 7f3d b062 8ebc 40f5 6f3b
00000050: b0ac 0b3c c4d9 14bd d06c 343d 0c2f dbbd
00000060: e03f 8e3b 88ad 1f3d 40a7 323c 107f b93c
00000070: d677 e03d 408e 6d3b c0c9 4bbb a07e a2bd
00000080: 8c0d b7bd c49c 5f3d 96d8 bebd 8ade a93d
00000090: aa30 f83d 9419 35bd aa5f c4bd d411 15bd
000000a0: 0029 75ba 5c21 1fbd 3800 e1bc 8e38 afbd
000000b0: e8bf 4bbd d0cd 53bd ba14 883d 84e1 3cbd
000000c0: 7490 f83d 6c74 673d 8079 2cbb 3e45 91bd
000000d0: e89d b9bd 70cd 433d ec48 0bbd d875 f5bd
000000e0: d8a8 5b3d 881d acbd 70ee b2bd 8c91 3bbd
000000f0: 62bf 81bd 60a0 f43c da4e 823d d2bf 8dbd
00000100: cc9d 513d 30d6 54bd e03a f73c 3887 7a3d
00000110: da07 c63d 009b a0bc 7068 a83c b214 d43d
00000120: d65e b7bd 3869 fa3c 3ee6 d53d f875 f8bc
00000130: 6cc9 243d b098 d1bc b01a 6abc a43a 56bd
00000140: 00c1 3f3b 00f7 d53a a05f b6bc 928b a1bd
00000150: 4037 debc 64f1 54bd 0c2b aabd 683d de3d
00000160: e0cd 4b3d 54a4 65bd bc57 1e3d e6ce ae3d
00000170: 16ac ea3d 98e8 c83d 0cde 42bd 7464 be3d
00000180: 24aa 5e3d a828 a63c c6ae d43d ba0d eb3d
00000190: 1c9d de3d 4c3f f43d 74e0 d9bd 006d 8d3b
000001a0: 28ee 81bc 2e79 ac3d fc83 2f3d b0f7 dabc
000001b0: 58b4 ff3d d26f 913d 984a ef3c 2e12 cabd
000001c0: f218 933d 749a eebd 7c7b 1ebd 9808 7d3d
000001d0: 4e12 85bd c8b9 9c3d cc36 73bd 4aae e93d
000001e0: fcab cc3d 9c6e 383d 64d4 b4bd e2b1 9fbd
000001f0: 026a c8bd 84c6 e5bd a863 f63c 6282 8b3d
00000200: 743c b63d 64ff 80bd 884f cfbc e8d8 4abd
00000210: 484c e0bc d8e7 553d fe1f c3bd 64de a9bd
00000220: 5cc0 21bd 105d fe3c 5628 aebd 007f fb3a
00000230: 76d9 87bd ca90 f5bd 8618 ffbd 2aac ec3d
00000240: 2847 173d d8cf d83d a2f4 ccbd a870 c7bd
00000250: b0a8 86bc 0c5b ee3d d429 8bbd 0aa6 b63d
00000260: b457 44bd e67f c23d 00dc 9ab9 c8c8 d2bd
00000270: ea7e f23d 58b6 4cbd 7efe f6bd 400b 5bbb
00000280: 0ac0 a23d 008b 243a 58ed 563d 70ac f33d
00000290: 1821 7fbd 400b 46bb 0c08 0e3d a8ee f53d
000002a0: ec19 49bd e832 f33d 9e02 8ebd d614 8d3d
000002b0: 5a2e ba3d d403 06bd 9c55 1c3d 9c1f ca3d
000002c0: 8a11 a4bd c273 fdbd 8019 95bc 00b2 59ba
000002d0: 768c d0bd 641e c93d 50af 83bd 5a65 c1bd
000002e0: 7422 21bd 3805 d4bd d45b aabd 545c aa3d
000002f0: 2442 bc3d 10e0 0d3d 20b6 9c3b 00a4 74b9
00000300: 20e9 f0bb 20b7 b1bc 580f db3c 8c63 133d
00000310: fcff b6bd 40d3 f23b c073 213d 18e3 e0bc
00000320: b00a 0c3d 4001 f93d 505f 823d 0e2b f43d
00000330: f854 cd3d 902e acbd fad3 b8bd 94fc 74bd
00000340: e8a8 ba3d 56b7 cebd 6635 c3bd 70e8 3cbc
00000350: 1aae f9bd 605c bbbc 0028 783a 0062 d1bd
00000360: 58c4 bdbd b8b1 e5bc 4cd0 4c3d 1c4b 7cbd
00000370: bc17 b2bd a6eb a6bd 2070 a23d 3033 1f3c
00000380: 3471 b9bd 10e8 1bbc be45 e33d e089 ef3c
00000390: a883 4b3d b655 8c3d d80d 8c3c 343c 8ebd
000003a0: c0e4 8f3c f82d 30bd 8e29 f53d 2cd1 5d3d
000003b0: 7807 cebd 30c1 e13d 72bc 93bd 80c6 603c
000003c0: e662 f53d e06f 0dbc 3e47 aebd c49f c4bd
000003d0: 9448 053d 86a8 efbd e6bd d7bd 12b5 96bd
000003e0: 8039 e63d 14e4 b7bd 6863 b13d 28c2 0dbd
000003f0: 006e 8a39 c8b7 c6bd b475 263d e4c4 00bd

fc3.bias f4 [64]
-0.008595681 -0.08758309 -0.054401465 -0.03632068 -0.04328164 0.05230817 -0.009936552 -0.0507973
0.049563143 0.013980815 0.07391455 -0.03156643 0.05003261 0.07452161 -0.021546775 -0.049485363
0.065618455 0.07211861 -0.010612207 0.08694455 0.07125409 0.0010621743 0.059844594 -0.04089947
-0.04146315 -0.082650125 0.024903055 0.061162345 -0.048315555 -0.030631443 -0.05284729 -0.08588038
-0.0841534 0.03297994 -0.055274926 -0.06599323 -0.02322422 -0.08273674 -0.063970156 -0.021150563
-0.06534225 -0.039471988 -0.07212304 -0.035026263 -0.015046941 -0.056293618 -0.038804952 -0.05188674
-0.05032555 0.041411113 -0.07597713 -0.0707037 0.030443184 -0.08255466 -0.0769284 -0.070497856
-0.05356134 0.01621426 0.04009892 0.017162934 -0.079227075 0.028528022 0.0022839904 0.029075772
00000000: e6d4 0cbc c35e b3bd 12d4 5ebd fec4 14bd
00000010: 1748 31bd 1741 563d ebcc 22bc d410 50bd
00000020: b902 4b3d ca0f 653c 8360 973d cd4b 01bd
00000030: feee 4c3d c99e 983d dd82 b0bc 2ab1 4abd
00000040: f862 863d ecb2 933d d3de 2dbc fc0f b23d
00000050: aaed 913d a838 8b3a 9b1f 753d 3486 27bd
00000060: 44d5 29bd 7844 a9bd 7e01 cc3c 5e85 7a3d
00000070: 88e6 45bd cbee fabc 6676 58bd 0de2 afbd
00000080: 9e58 acbd f915 073d f667 62bd 7527 87bd
00000090: b840 bebc e171 a9bd c902 83bd f243 adbc
000000a0: 28d2 85bd 61ad 21bd 3fb5 93bd b377 0fbd
000000b0: 7287 76bc 2394 66bd f1f1 1ebd 3187 54bd
000000c0: 2a22 4ebd b39e 293d e699 9bbd 1acd 90bd
000000d0: fc63 f93c 6b12 a9bd a38c 9dbd 2e61 90bd
000000e0: 2363 5bbd c5d3 843c c43e 243d 4899 8c3c
000000f0: ce41 a2bd 99b3 e93c 00af 153b 5030 ee3c

fc4.weight f4 [1, 64]
0.00093633845 0.0028439516 -0.00031476188 0.0019221765 -0.00043477715 -0.0014774766 -0.0014803895 -0.0007060143
-0.0018971408 0.0017039463 -0.001689022 -0.0022540945 -0.0010461055 -0.0027344888 0.0024000388 0.0025655956
-0.002715635 0.00025535273 -0.00022301925 0.0022647025 0.0024955708 -0.0010868408 -0.00044180237 0.002277026
-0.0007453555 -0.0009741122 0.0029540663 0.0008989642 -0.0017547351 0.00034948182 -0.00082700263 -0.00053456106
0.0017662607 0.00017221141 -0.00058647647 0.0019625928 0.00063228427 -0.0010577448 -0.0022229652 0.0026380648
-0.002858009 -0.0014846785 0.0019797045 -0.0014668133 0.0018053695 0.0017831282 -0.00136073 -0.0026776553
-0.0005326195 0.0021833873 0.0024496915 0.0019427512 -0.0012654816 -0.0022331004 -0.0024082449 -0.0013973976
5.2689315e-06 -0.000704666 -0.0014569102 0.0024205828 0.0015693745 -0.0022200448 -0.0016681816 -0.0017238143
00000000: 9c74 753a 9761 3a3b a006 a5b9 8af1 fb3a
00000010: cdf2 e3b9 e3a7 c1ba a109 c2ba d113 39ba
00000020: 7ba9 f8ba f356 df3a 2d62 ddba 6eb9 13bb
00000030: 7a1d 89ba 1c35 33bb f849 1d3b 8d23 283b
00000040: ccf8 31bb dde0 8539 46da 69b9 676b 143b
00000050: bb8c 233b 5374 8eba b6a1 e7b9 283a 153b
00000060: f663 43ba 905b 7fba 0299 413b 77a8 6b3a
00000070: 24ff e5ba a83a b739 35cb 58ba c921 0cba
00000080: e081 e73a a693 3439 c5bd 19ba d89e 003b
00000090: e1bf 253a 07a4 8aba 2baf 11bb 62e3 2c3b
000000a0: 6f4d 3bbb 8b99 c2ba eebd 013b 1642 c0ba
000000b0: 26a2 ec3a dbb7 e93a 865a b2ba 9a7b 2fbb
000000c0: 7d9f 0bba 2917 0f3b 018b 203b eaa3 fe3a
000000d0: 84de a5ba 3559 12bb a5d3 1dbb e228 b7ba
000000e0: c7cb b036 56b9 38ba cbf5 beba a4a2 1e3b
000000f0: 78b3 cd3a 2c7e 11bb e3a6 daba 9cf1 e1ba
