continuous_action_space/Models/1_critic.pt (torch, 7815 bytes, 9 tensors)

fcs1.weight f4 [32, 5]
0	0x3daa696b	0.08320888
1	0x3e05ccfb	0.13066475
2	0x3db82c00	0.08992767
3	0xbdc0fff5	-0.0942382
4	0x3de7fcea	0.113275364
5	0xbe10af57	-0.14129387
6	0xbde6e94f	-0.11274969
7	0x3dbcb8e7	0.09214955
8	0x3d9f292f	0.07771527
9	0xbe23a516	-0.15980944
10	0xbe1c79c4	-0.15280825
11	0xbd02899a	-0.03186951
12	0xbe05d6a5	-0.13070162
13	0xbdea0f2b	-0.11428674
14	0x3d956762	0.07295109
15	0x3e1ca02d	0.15295477
16	0x3daff59e	0.0859177
17	0xbe1d3695	-0.15352853
18	0x3d874494	0.06604877
19	0x3d37a4f2	0.04483504
20	0xbb189cb6	-0.0023286766
21	0xb995b530	-0.0002855449
22	0x3d849186	0.06473069
23	0xbdf23ab9	-0.11827607
24	0x3d3fbcfd	0.046811093
25	0xbdc448d2	-0.09584202
26	0xbe211601	-0.1573105
27	0xbdd821fd	-0.10553358
28	0xbcf6bceb	-0.03011938
29	0xbbeb26d4	-0.0071762595
30	0x3d974363	0.073859
31	0xbd4c42b9	-0.04986832
32	0xbdbc0539	-0.09180684
33	0xbe068bda	-0.13139287
34	0x3c6b419c	0.014358904
35	0xbc07564a	-0.008260319
36	0xbdeba668	-0.11506349
37	0x3e28e53b	0.16493694
38	0x3dce0f75	0.10061542
39	0xbdc21c21	-0.094780214
40	0x3dcc96de	0.09989713
41	0xbd8674da	-0.065652564
42	0x3ce580a9	0.028015452
43	0xbe0adcd9	-0.13560809
44	0x3dfe7aff	0.124258034
45	0x3de7cb10	0.11318028
46	0xbdc60c32	-0.09670295
47	0xbdc414d6	-0.09574287
48	0x3e1c8a9d	0.15287252
49	0x3d934311	0.07190526
50	0xbd93ddd0	-0.07220042
51	0xbe0a9aea	-0.13535658
52	0xbe03742c	-0.12837285
53	0x3e329ba4	0.17442185
54	0xbda4a456	-0.08039157
55	0xbe1a2886	-0.15054521
56	0x3de04400	0.1095047
57	0x36e73952	6.8910094e-06
58	0xbe2a19a5	-0.16611345
59	0x3b03ee9a	0.0020131231
60	0x3e2c3503	0.16817097
61	0x3d00d12f	0.031449493
62	0xbd80dae0	-0.06291747
63	0xbd021db3	-0.031766605
64	0xbc01c06e	-0.007919414
65	0xbd32dce0	-0.043667674
66	0x3dcae2d6	0.09906547
67	0x3d5958d7	0.05306324
68	0x3dafe279	0.08588118
69	0x3dbf23ae	0.09332977
70	0xbe177663	-0.14791255
71	0x3d73ecaa	0.059551872
72	0xbc9e6ed9	-0.019339966
73	0x3d91481b	0.07093831
74	0x3de17eb7	0.11010497
75	0x3e304f39	0.17217721
76	0xbdcde957	-0.10054272
77	0xbc7a83ef	-0.0152902445
78	0xbde3ae37	-0.11117213
79	0x3d3de25d	0.046358455
80	0xbdaf7f99	-0.08569259
81	0x3da20167	0.07910424
82	0x3e2f7522	0.17134526
83	0x3de3fed0	0.11132586
84	0xbe0ef08e	-0.13958952
85	0xbe114003	-0.14184575
86	0xbc297c12	-0.010344522
87	0x3c87b477	0.016565545
88	0x3d8fa3bd	0.070136525
89	0x3e2c086f	0.16800092
90	0xbd5e590e	-0.054284148
91	0xbd9a7dcf	-0.07543527
92	0xbdd8fb3f	-0.105947964
93	0x3cba0c0f	0.022710828
94	0xbdef22c6	-0.116765544
95	0x3dda9b94	0.106742054
96	0xbe30856a	-0.17238393
97	0x3b895b89	0.00419182
98	0x3cb8ca1b	0.022557309
99	0xbe08d9c8	-0.13364327
100	0x3e22a305	0.158825
101	0xbdc44913	-0.0958425
102	0xbe149ac2	-0.1451216
103	0xbe17798c	-0.1479246
104	0xbd832e61	-0.064053304
105	0xbe10d171	-0.14142396
106	0x3cc70152	0.024292622
107	0xbdacde5b	-0.084408484
108	0xbda99f81	-0.08282376
109	0x3e11de49	0.14244951
110	0x3d1c5b81	0.038173202
111	0xbda1de9f	-0.0790379
112	0xbd484e25	-0.04890265
113	0xbcb6dc80	-0.02232194
114	0x3d98e473	0.07465448
115	0x3dd522e3	0.10407045
116	0x3dfb1ecd	0.12261734
117	0xbd9b49b5	-0.07582418
118	0x3de93397	0.11386793
119	0xbd075da0	-0.033048272
120	0xbcbe40e5	-0.023224303
121	0xbd43b5da	-0.04778085
122	0x3ddcd620	0.107830286
123	0xbcb2d7cb	-0.021831414
124	0x3d87f7aa	0.06639035
125	0x3dc11052	0.09426941
126	0xbd09141e	-0.03346645
127	0x3d4c4807	0.049873378
128	0xbd584b03	-0.05280591
129	0xbda2b8c7	-0.079454
130	0xbdc297ac	-0.09501585
131	0x3d6d74cc	0.057972714
132	0x3e34f4a8	0.17671454
133	0x3d0c6df9	0.034284566
134	0xbe0aab42	-0.13541892
135	0x3dff51e1	0.12466789
136	0xbe33ca38	-0.17557609
137	0x3e05ccc8	0.13066399
138	0x3e117b27	0.14207135
139	0x3e0942b1	0.13404347
140	0xbd558563	-0.05212916
141	0xbbb00ded	-0.005372754
142	0xbba6d704	-0.00509155
143	0x3b07fcfd	0.0020750158
144	0x3d227de0	0.039670825
145	0x3e122246	0.14270887
146	0xbc055cb5	-0.008139779
147	0x3dab6c73	0.083702944
148	0xbca87af3	-0.02056644
149	0xbdddb4e8	-0.10825521
150	0xbdeee807	-0.116653495
151	0xbe159cef	-0.14610647
152	0xbdd6cba3	-0.10488059
153	0x3d6b114e	0.05738955
154	0xbd471cc4	-0.048611417
155	0x3e02edfe	0.127861
156	0xbe1f20be	-0.15539834
157	0xbd515e57	-0.05111536
158	0xbdea9b92	-0.11455454
159	0x394d3734	0.00019570888

fcs1.bias f4 [32]
0	0xbd541960	-0.051782012
1	0x3eaea53a	0.34110433
2	0x3ed36b89	0.4129298
3	0xbd68eb28	-0.056864887
4	0xbec04a06	-0.37556475
5	0x3e5335ed	0.2062604
6	0x3eabd1fe	0.3355865
7	0xbee0234d	-0.43776932
8	0xbcc89bff	-0.024488447
9	0x3e1ae9cc	0.15128249
10	0x3ecc6b32	0.39925534
11	0x3e119a63	0.1421905
12	0x3e03b6c9	0.12862696
13	0x3ea93e72	0.33055454
14	0xbeac89db	-0.33698925
15	0xbedb5bd4	-0.42843497
16	0xbea33884	-0.31879056
17	0x3ea347aa	0.31890613
18	0xbdfa837e	-0.122321114
19	0xbe19de36	-0.15026173
20	0x3dd422fe	0.10358237
21	0x3dccfa56	0.10008685
22	0x3ebb5c29	0.3659375
23	0xbe9fa15f	-0.31177804
24	0x3de73ca1	0.11290861
25	0xbd8965a1	-0.06708837
26	0x3e2a9d1e	0.16661498
27	0x3e88f6e1	0.26750854
28	0xbde2afc0	-0.11068678
29	0x3e52013d	0.20508285
30	0xbeab3ea8	-0.3344624
31	0x3e924239	0.2856615

fcs2.weight f4 [16, 32]
0	0x3d65e470	0.056126058
1	0xb9de9400	-0.00042453408
2	0xbd5b8080	-0.053589344
3	0xbca3b140	-0.01998198
4	0x3e6aaab4	0.2291668
5	0x3cc8b170	0.024498671
6	0x3e5e25ae	0.21694061
7	0xbd2dae80	-0.042402744
8	0xbd5288f8	-0.051400155
9	0x3e735b58	0.23765314
10	0x3df9a3d0	0.12189448
11	0x3e518eae	0.20464584
12	0x3def5210	0.11685574
13	0x3cbe5880	0.02323556
14	0x3e79bf6e	0.24389431
15	0x3d8d2934	0.068926245
16	0xbdea90d0	-0.11453402
17	0x3e40fd9c	0.18846744
18	0x3d6d7e20	0.05798161
19	0x3cd57640	0.026057363
20	0x3e1ae62a	0.15126863
21	0xbe7ca40a	-0.24671951
22	0xbcb44630	-0.022006124
23	0xb9bb4c00	-0.00035724044
24	0x3dad239c	0.084540576
25	0x3e178cf2	0.1479986
26	0x3e0535b0	0.13008761
27	0x3dc15074	0.09439173
28	0xbe78b640	-0.24288273
29	0x3e0f68d8	0.14004838
30	0xbe2bd2dc	-0.16779655
31	0x3e5fb5d8	0.21846712
32	0x3dc79084	0.09744361
33	0x3cf361e0	0.029709756
34	0xbe6335b2	-0.22188452
35	0xbe5a14f6	-0.21297058
36	0x3dac4ed4	0.08413473
37	0x3cc2f380	0.02379775
38	0x3dadc560	0.08484912
39	0xbd74bb68	-0.059749037
40	0xbe51fd4e	-0.20506784
41	0x3e752116	0.23938403
42	0x3e0377fe	0.12838742
43	0xbcd19040	-0.02558148
44	0xbd5d2ec0	-0.053999662
45	0xbdce3e80	-0.10070515
46	0xbd3ce5b8	-0.046117514
47	0x3dded8bc	0.108811826
48	0xbe570234	-0.20996934
49	0x3e11b126	0.14227733
50	0xbd8ae960	-0.06782794
51	0x3e04523c	0.12921995
52	0xbe7a41ea	-0.24439207
53	0x3d8f3dac	0.06994185
54	0x3d8c97d8	0.068648994
55	0xbdca1e78	-0.09869093
56	0xbbe96680	-0.0071228147
57	0xbda9bd84	-0.082881
58	0xbe0ce378	-0.13758647
59	0x3e4e501c	0.20147747
60	0xbe527890	-0.20553803
61	0x3e535dd0	0.20641255
62	0xbdbfdd9c	-0.093684405
63	0xbe38a6aa	-0.18032327
64	0xbd84e510	-0.06489003
65	0xbe0bf244	-0.13666636
66	0xbe4beece	-0.19915316
67	0x3d830c44	0.06398824
68	0xbe564490	-0.20924592
69	0xb8784000	-5.9187412e-05
70	0xbe0f7d0e	-0.14012548
71	0xbe2e2ad0	-0.17008519
72	0x3a86e300	0.001029104
73	0xbc5714c0	-0.013127506
74	0x3e529f7e	0.20568654
75	0x3e76c2c2	0.24097732
76	0xbdee9220	-0.11648965
77	0x3e28b33e	0.16474625
78	0x3e46c6d4	0.19411784
79	0x3e7e25c8	0.248191
80	0x3dd6187c	0.10453889
81	0x3dc3c1e8	0.09558469
82	0x3de31fdc	0.11090061
83	0x3dafec34	0.08589974
84	0x3e3692a0	0.1782937
85	0xbe1b8dc8	-0.15190804
86	0x3c64cce0	0.013964862
87	0xbe78ba90	-0.24289918
88	0x3ca93e00	0.020659447
89	0xbe16b890	-0.14718843
90	0x3d52f378	0.05150172
91	0xbdcec9c0	-0.100970745
92	0xbe5123fe	-0.20423886
93	0xbdbb2f80	-0.09139919
94	0x3da7bb18	0.08189982
95	0xbe2af67a	-0.16695586
96	0xbe2bc0a8	-0.16772711
97	0xbe74754a	-0.23872867
98	0xbe2dfc04	-0.16990668
99	0x3e023ee6	0.12719306
100	0x3e131aaa	0.1436564
101	0x3e7f010e	0.24902746
102	0x3be1b640	0.006888181
103	0xbe5f64c4	-0.21815783
104	0xbd75ed88	-0.06004098
105	0xbe52c4ce	-0.20582888
106	0xbb25f080	-0.002532035
107	0xbb3c0900	-0.0028691888
108	0x3e5e10c0	0.21686077
109	0xbe5c8252	-0.21534088
110	0x3e3abbf8	0.18235767
111	0x3e57cc94	0.21074134
112	0x3e5047c4	0.20339876
113	0xbe3d19d0	-0.18466878
114	0x3d93d680	0.07218647
115	0xbe084098	-0.1330589
116	0xbe6733c0	-0.22578335
117	0x3dbc8ccc	0.092065424
118	0xbca5a920	-0.020222247
119	0x3d0a2ab0	0.033732116
120	0xbdc46358	-0.09589261
121	0xbe1b6934	-0.1517685
122	0x3d800b20	0.06252122
123	0xbe6c8e42	-0.23101142
124	0xbcc6f400	-0.02428627
125	0xbe092d06	-0.13396081
126	0x3e57af18	0.21062887
127	0x3e1097a2	0.14120343
128	0x3e2f06ea	0.17092481
129	0xbdf17ef0	-0.117917895
130	0xbe50b00a	-0.20379654
131	0xbe453476	-0.19258294
132	0x3e2fc11a	0.17163506
133	0x3e7456fe	0.2386131
134	0x3b574a80	0.0032850802
135	0x3e48c7b0	0.19607425
136	0x3d3fc6a8	0.046820313
137	0xbe51e3b8	-0.20497024
138	0xbe2cc8f8	-0.16873538
139	0xbdf34334	-0.11878052
140	0xbe77c858	-0.24197519
141	0x3e77b4de	0.24190089
142	0x3db1e070	0.08685386
143	0xbe3a2730	-0.18179011
144	0xbdf5dabc	-0.12004611
145	0x3d73d390	0.059527934
146	0xbe1b5092	-0.15167454
147	0x3db10320	0.08643174
148	0xbe7c2424	-0.24623162
149	0x3e40477e	0.18777272
150	0x3d99ad04	0.07503703
151	0xbe32ff26	-0.17480144
152	0x3e57a09e	0.21057364
153	0x3df66b9c	0.120322436
154	0x3e6c71d6	0.230903
155	0xbe3b21f8	-0.18274677
156	0xbe46c114	-0.19409591
157	0x3d25dcf8	0.040493935
158	0x3e1be5da	0.152244
159	0x3d4589a0	0.048226953
160	0xbe7285ba	-0.23683825
161	0xbdc0c120	-0.09411836
162	0x3e2a232e	0.16614982
163	0xbbaacb40	-0.0052122176
164	0xb9ebd800	-0.00044983625
165	0xbe0b2ef4	-0.1359213
166	0x3dbb4880	0.09144688
167	0xbd9fbcf4	-0.07799712
168	0x3e50ecf0	0.20402884
169	0x3e185548	0.14876282
170	0x3de8e39c	0.11371538
171	0x3c0e8380	0.008698344
172	0xbe0bcb12	-0.13651684
173	0xbe588c2c	-0.21147221
174	0xbd8d413c	-0.06897208
175	0xbe37d890	-0.17953706
176	0x3e0e7042	0.1391001
177	0xbe04fe12	-0.12987545
178	0x3e58c83a	0.2117013
179	0xbdb10540	-0.086435795
180	0x3d3f05b0	0.046636283
181	0x3e084d4e	0.1331074
182	0xbe471676	-0.19442162
183	0x3c0fa3c0	0.008767068
184	0xbdde4b70	-0.10854232
185	0xbca72be0	-0.020406663
186	0xbe6f8d04	-0.23393637
187	0xbd92ffdc	-0.071777076
188	0xbdfb0520	-0.12256837
189	0x3e4d1d7c	0.20030779
190	0x3de3e340	0.11127329
191	0xbe792956	-0.24332175
192	0x3dd53ba0	0.10411763
193	0x3dc868d4	0.097856194
194	0x3cd30120	0.025757372
195	0x3e73c600	0.23806
196	0xbe5c1e8c	-0.21496028
197	0xbe04f352	-0.12983444
198	0xbdc29a68	-0.09502107
199	0x3d922f98	0.07137984
200	0xbe3116e2	-0.17293885
201	0xbde92598	-0.113841236
202	0x3dc51a90	0.09624207
203	0x3dd484b0	0.10376871
204	0x3e3fcf68	0.18731463
205	0xbcbe1c10	-0.02320674
206	0x3db88ca4	0.090112
207	0xbd2fb120	-0.04289353
208	0x3e2aa418	0.1666416
209	0x3e6b89b6	0.23001751
210	0xbd81c9c0	-0.06337309
211	0xbd1d1a20	-0.038354993
212	0xbe788c3e	-0.24272248
213	0xbe4e6e80	-0.2015934
214	0xbb0e1b00	-0.0021683574
215	0x3e6eece0	0.23332548
216	0xbd7023b0	-0.058627784
217	0x3bff0c00	0.007783413
218	0xbdc7ede0	-0.09762168
219	0x3e74479a	0.23855439
220	0xbe18e6f8	-0.14931858
221	0xbe30e2b4	-0.1727398
222	0x3e407304	0.18793875
223	0x3c4c9240	0.012486041
224	0xbd436160	-0.047700286
225	0xbe31edaa	-0.17375818
226	0x3e6c945a	0.23103467
227	0xbd5ae000	-0.05343628
228	0xbda313fc	-0.07962796
229	0x3dd536c0	0.10410833
230	0xbc6329c0	-0.013864934
231	0x3d042118	0.032258123
232	0xbc4a6080	-0.012352109
233	0xbe7c5a08	-0.24643719
234	0xbe294ba8	-0.16532767
235	0xbe1e2a56	-0.15445837
236	0xbe073eee	-0.132076
237	0x3c13ad40	0.009013474
238	0x3dcb2240	0.09918642
239	0x3e76caa0	0.24100733
240	0xbe035c3e	-0.12828156
241	0xbd582488	-0.052769214
242	0xbe236376	-0.1595591
243	0xbe722436	-0.23646626
244	0xbe4d0dde	-0.20024821
245	0xbdd10fc8	-0.10208088
246	0xbc8de850	-0.01732269
247	0xbd9e77e8	-0.07737714
248	0xbe3a06fc	-0.18166727
249	0x3e325704	0.17416006
250	0x3e7d6b76	0.24748024
251	0x3d4aa4e0	0.049473643
252	0xbdbdf928	-0.092760384
253	0xbc83de50	-0.016097218
254	0xbdf45dcc	-0.11931953
255	0x3d9fca3c	0.07802245

fcs2.bias f4 [16]
0	0xbdc83bbd	-0.09777019
1	0x3e034d04	0.12822348
2	0xbdec69ee	-0.11543642
3	0x3da4db50	0.08049643
4	0xbdffecb6	-0.12496321
5	0x3e1307db	0.14358465
6	0x3d6e951f	0.05824768
7	0x3e0426a8	0.12905371
8	0x3c0b56e3	0.008504602
9	0xbdd00a55	-0.10158221
10	0x3d4c50a5	0.049881596
11	0xbde0e71e	-0.10981582
12	0xbe008787	-0.125517
13	0xbe3492f6	-0.17634186
14	0x3c3b8bc1	0.011446894
15	0xbc31cf1d	-0.010852602

fca1.weight f4 [16, 1]
0	0x3e66c09e	0.22534415
1	0x3e71131c	0.23542446
2	0x3d18b1c0	0.03727889
3	0xbdbfc6cc	-0.09364089
4	0xbe250da2	-0.16118482
5	0x3e1b33d0	0.15156484
6	0x3de07204	0.10959247
7	0xbe36d08e	-0.17852995
8	0x3e2f393c	0.17111677
9	0x3de2e5b8	0.110789716
10	0x3dd87b04	0.10570338
11	0xbde9f13c	-0.11422965
12	0xbdb97988	-0.09056383
13	0xbd3adf20	-0.045622945
14	0x3d1224b0	0.03567952
15	0xbb43d880	-0.0029883683

fca1.bias f4 [16]
0	0xbe51ac38	-0.20475852
1	0x3f3cac10	0.73700047
2	0xbf0f198a	-0.55898345
3	0x3f1e7aa4	0.61905885
4	0xbe884ca0	-0.2662096
5	0xbd5c3b20	-0.053767323
6	0xbf3c4d56	-0.73555505
7	0xbf3d23f0	-0.7388296
8	0x3f2d5096	0.6770109
9	0xbf149f00	-0.58055115
10	0xbf5a56c0	-0.8528862
11	0xbe3a8798	-0.18215787
12	0xbf0f7544	-0.5603831
13	0x3eb49b18	0.35274577
14	0xbeadbac8	-0.33931565
15	0xbe974bf0	-0.29550123

fc2.weight f4 [16, 32]
0	0xbd5f8688	-0.05457166
1	0x3e68db6e	0.22739956
2	0xbde3dac4	-0.111257106
3	0xbe6eacce	-0.23308107
4	0x3e047844	0.12936503
5	0xbdfe89bc	-0.124286145
6	0xbddb8cd0	-0.10720217
7	0x3e2dd288	0.16974843
8	0xbe1a3786	-0.15060243
9	0x3e5cbcf0	0.21556449
10	0xbcfef690	-0.03112343
11	0x3e361762	0.17782357
12	0x3da3eb38	0.08003849
13	0x3e07e114	0.13269454
14	0xbd87b29c	-0.06625864
15	0x3e4d8318	0.2006954
16	0xbe55eea2	-0.20891812
17	0x3e536be0	0.2064662
18	0xbe7b826c	-0.24561471
19	0xbd8066a4	-0.06269577
20	0x3e566f30	0.20940852
21	0x3d96afa0	0.073577166
22	0x3d9b0d10	0.07570851
23	0x3d5588f8	0.052132577
24	0x3d2ffc88	0.042965442
25	0xbe40c62a	-0.18825594
26	0x3d47ad38	0.04874918
27	0xbe0dc1b2	-0.1384342
28	0xbe6f9930	-0.2339828
29	0x3d87be40	0.06628084
30	0x3e68ca1c	0.22733349
31	0xbe059636	-0.13045582
32	0xbe603d5a	-0.21898404
33	0xbe1ceff2	-0.15325907
34	0xbe44c526	-0.19215831
35	0x3df5fdd8	0.120113075
36	0x3e6d3e12	0.23168209
37	0xbe5e8ed6	-0.21734175
38	0x3e5a70fc	0.21332163
39	0xbe01709e	-0.12640616
40	0x3e3cd034	0.18438798
41	0x3e3796e6	0.17928657
42	0x3da3e8e8	0.08003408
43	0x3e47b336	0.19501957
44	0x3a4f1400	0.00078994036
45	0xbc111840	-0.008855879
46	0x3db985f0	0.0905875
47	0x3e41370a	0.18868652
48	0x3dfb25e0	0.122630835
49	0xbda53694	-0.080670506
50	0x3e7144d2	0.23561409
51	0xbda50f0c	-0.080595106
52	0x3d9138bc	0.07090899
53	0x3e4e8562	0.20168069
54	0x3e7517f8	0.23934925
55	0x3e2e3f76	0.17016396
56	0xbe1b8596	-0.15187678
57	0x3d8c9640	0.068645954
58	0xbe457eb6	-0.19286618
59	0xbe429e6c	-0.19005746
60	0x3e077314	0.13227493
61	0xbe63c958	-0.22244775
62	0x3db1333c	0.0865235
63	0x3e1af4ca	0.15132442
64	0x3cf43800	0.02981186
65	0xbd375788	-0.04476121
66	0xbe33b2d2	-0.17548683
67	0xbe28d2c8	-0.16486657
68	0x3da410e8	0.08011037
69	0x3d5636a0	0.05229819
70	0x3e18c8f2	0.14920405
71	0xbe33619e	-0.17517707
72	0x3c20b8a0	0.009809643
73	0x3d26ce30	0.04072398
74	0xbe341ac8	-0.17588341
75	0x3e239d2a	0.15977922
76	0x3e02d84c	0.12777823
77	0x3e190f8a	0.14947334
78	0x3b8e0a40	0.004334718
79	0xbe400738	-0.18752754
80	0x3bd4ee00	0.0064980984
81	0x3d50a1f0	0.050935686
82	0xbdfbbf64	-0.12292364
83	0x3c1b26c0	0.009469688
84	0x3e728af6	0.23685822
85	0xbe1d7516	-0.15376696
86	0xbe5df118	-0.21674001
87	0xbdb2e5bc	-0.087352246
88	0xbe6998a6	-0.22812137
89	0xbdff6838	-0.1247105
90	0x3e4a8f68	0.19781268
91	0xbe2d6656	-0.1693357
92	0x3d3d74a8	0.04625383
93	0x3e49b00c	0.19696063
94	0x3dfd1850	0.12358153
95	0x3db4bae0	0.08824706
96	0x3e0dadc6	0.1383582
97	0x3e4e5506	0.20149621
98	0xbe104134	-0.14087373
99	0x3e3a3a3a	0.18186274
100	0x3e041934	0.12900239
101	0x3dda8fb4	0.106719404
102	0xbe5501d8	-0.20801485
103	0xbe04861c	-0.12941784
104	0x3e08c990	0.1335814
105	0xbde458a8	-0.11149722
106	0x3d8e8840	0.069595814
107	0x3df96e3c	0.12179229
108	0x3e472f46	0.19451627
109	0x3d858aac	0.0652059
110	0xbcde5760	-0.027141273
111	0xbd4ed188	-0.050492793
112	0xbe2a799c	-0.16647953
113	0xbe3248f2	-0.17410639
114	0xbe0e5736	-0.13900456
115	0xbdad787c	-0.08470246
116	0xbc253de0	-0.010085553
117	0xbd3e0d18	-0.046399206
118	0x3e38fb8a	0.18064705
119	0x3c11c8e0	0.00889799
120	0xbdd8873c	-0.10572669
121	0xbdfcad54	-0.12337747
122	0xbe4056f6	-0.18783173
123	0xbd84be34	-0.06481591
124	0x3d2f4ee8	0.04279986
125	0x3de75384	0.11295226
126	0xbe1974e0	-0.1498599
127	0x3d8fe5c0	0.07026243
128	0xbe099d22	-0.13438848
129	0x3e77ce02	0.2419968
130	0x3e0f3054	0.1398328
131	0x3b93a8c0	0.0045062006
132	0x3d570580	0.05249548
133	0x3e777570	0.24165893
134	0xbd195a60	-0.037439704
135	0xbd3dfa68	-0.046381384
136	0x3e6f0160	0.23340368
137	0xbe49de0c	-0.1971361
138	0xbe5633c8	-0.2091819
139	0xbe513bb2	-0.20432928
140	0x3e35f41c	0.17768902
141	0xbdcd3e1c	-0.10021612
142	0x3e4cf51a	0.20015374
143	0xbe6640be	-0.22485635
144	0x3e5c9446	0.21540937
145	0x3e600030	0.21875072
146	0xbe17b7a6	-0.1481615
147	0x3e267332	0.16254881
148	0xbe15a85a	-0.14615002
149	0x3e76175a	0.24032345
150	0xbe1505e4	-0.14553028
151	0x3e3f482c	0.18679875
152	0x3e16dfa2	0.14733747
153	0x3d8b6588	0.06806475
154	0x3d1f7c08	0.038936645
155	0xbe4e7572	-0.2016199
156	0xbe6bba86	-0.23020372
157	0xbd9b8a84	-0.07594779
158	0xbe312cb6	-0.17302212
159	0xbe0d07d2	-0.13772514
160	0x3ad8d300	0.0016542375
161	0xbdc3ec08	-0.09566504
162	0xbc93cbb0	-0.018041462
163	0x3e22d584	0.15901762
164	0xbe663014	-0.22479278
165	0x3cf45020	0.029823363
166	0x3e6356fc	0.2220115
167	0x3c9145c0	0.017733455
168	0xbe360156	-0.17773947
169	0x3e7d991a	0.24765435
170	0xbe1912b6	-0.14948544
171	0xbccef460	-0.025263011
172	0x3dfa26d8	0.1221444
173	0x3e73498e	0.23758528
174	0xbd0f5128	-0.034989506
175	0x3e012482	0.12611583
176	0x3e7a2278	0.24427211
177	0x3dc4e86c	0.096146435
178	0x3e13f908	0.14450467
179	0xbd3be240	-0.045870066
180	0xbe2c204e	-0.16809198
181	0x3e08aadc	0.13346428
182	0x3e355234	0.17707139
183	0x3cfdecf0	0.03099677
184	0x3e53d5e0	0.20687056
185	0x3e62261c	0.2208485
186	0xbe2cce82	-0.16875651
187	0x3de23fa4	0.11047295
188	0x3e455c9e	0.19273612
189	0xbe336ace	-0.17521212
190	0xbe6ee6d6	-0.23330244
191	0xbde52be4	-0.11190012
192	0x3d27ce40	0.04096818
193	0x3da2f50c	0.07956895
194	0xbe045c28	-0.1292578
195	0x3e0712c2	0.1319075
196	0xbe6ea334	-0.23304445
197	0xbdf9c730	-0.12196195
198	0xbe0180b2	-0.1264675
199	0xbe26c59e	-0.16286322
200	0x3e7a1f40	0.24425983
201	0x3e70deb4	0.23522455
202	0xbde09bd0	-0.10967219
203	0xbb86be40	-0.004112035
204	0x3d815690	0.063153386
205	0xbe308944	-0.17239863
206	0xbe77f3c8	-0.24214089
207	0xbe15db9c	-0.14634556
208	0xbe7a1418	-0.24421728
209	0x3e243190	0.16034532
210	0x3e7dbb1a	0.24778405
211	0x3e154462	0.14576867
212	0xbdf733b0	-0.120704055
213	0x3e0dcb88	0.13847172
214	0xbd6b83b0	-0.057498634
215	0xbc93a2d0	-0.018021971
216	0xbd9241f8	-0.07141489
217	0xbda48348	-0.080328524
218	0x3b971580	0.0046107173
219	0x3d45b678	0.04826972
220	0x3dee87d4	0.11647001
221	0x3e5229f4	0.20523816
222	0x3d90bb08	0.070669234
223	0xbdd1c6a8	-0.10242969
224	0x3dc148f4	0.09437743
225	0x3d5aa130	0.053376377
226	0xbe028008	-0.12744153
227	0x3d7a69c8	0.061136037
228	0xbe331d46	-0.17491636
229	0xbba53fc0	-0.005043
230	0xbe48d71a	-0.19613305
231	0x3e004218	0.12525213
232	0xbda852d4	-0.08218923
233	0x3d0a6cf8	0.033795327
234	0xbd9fe144	-0.07806638
235	0x3e7670fa	0.24066535
236	0x3e400d92	0.18755177
237	0xbe08f12e	-0.13373253
238	0xbe3d5364	-0.18488842
239	0xbe2f1aa2	-0.17100003
240	0xbe215dae	-0.15758392
241	0xbde66554	-0.112497956
242	0xbe0ca3d0	-0.13734365
243	0x3e42c8e6	0.19021949
244	0xbe28cac8	-0.16483605
245	0xbe2f2b10	-0.17106271
246	0xbe2b10f8	-0.16705692
247	0x3e2b031c	0.16700405
248	0x3d1850a8	0.037186295
249	0xbe098082	-0.13427928
250	0xbe2ab938	-0.16672218
251	0x3bddc600	0.006767988
252	0x39afc800	0.00033527613
253	0xbde78d6c	-0.11306271
254	0x3cb7f480	0.022455454
255	0xbe2a3072	-0.16620043

fc2.bias f4 [16]
0	0x3cf9ba5d	0.030484373
1	0x3e30497e	0.17215535
2	0x3cbe64d3	0.023241436
3	0x3e091509	0.1338693
4	0x3d82bda1	0.06383825
5	0xbbbdd2ad	-0.005792937
6	0xbd770906	-0.06031134
7	0x3e040ed7	0.12896286
8	0xbdd9e449	-0.10639245
9	0x3c5f6cfc	0.013636824
10	0xbdf2289a	-0.118241504
11	0xbc4706ef	-0.012147649
12	0x3de05432	0.10953559
13	0xbe067505	-0.13130577
14	0x3cdfd9d5	0.02732555
15	0x3dee3050	0.11630309

fc3.weight f4 [1, 16]
0	0xbb1d50f7	-0.0024004558
1	0x3b12d80f	0.0022406613
2	0x3b239f2a	0.0024966695
3	0xbb34a79f	-0.002756573
4	0xbb192bfd	-0.0023372166
5	0xbb1693ac	-0.0022976203
6	0x3b196d78	0.0023411196
7	0x3a763cb8	0.0009393203
8	0x3b18f9fb	0.002334236
9	0x374da354	1.225698e-05
10	0xbacff8c0	-0.001586698
11	0x3b16d456	0.0023014746
12	0x3ac2e8b5	0.0014870377
13	0x3b2d848e	0.0026476714
14	0xbb239bd3	-0.0024964705
15	0xba9c8a5c	-0.001194309
